…
        max_scale: 1
        min_aspect_ratio: 0.5
        max_aspect_ratio: 2
      }
      sample_constraint {
        min_jaccard_overlap: 0.9
      }
      max_sample: 1
      max_trials: 50
    }
    batch_sampler {
      sampler {
        min_scale: 0.3
        max_scale: 1
        min_aspect_ratio: 0.5
        max_aspect_ratio: 2
      }
      sample_constraint {
        max_jaccard_overlap: 1
      }
      max_sample: 1
      max_trials: 50
    }
    label_map_file: "/media/jinfagang-workspace/Jinfagang-Use/SSD/KITTI/data/labelmap_kitti.prototxt"
  }
}
layer {
  name: "conv1_1"
  type: "Convolution"
  bottom: "data"
  top: "conv1_1"
  param {
    lr_mult: 1
    decay_mult: 1
  }
  param {
    lr_mult: 2
    decay_mult: 0
  }
  convolution_param {
    num_output: 64
    pad: 1
    kernel_size: 3
    weight_filler {
      type: "xavier"
    }
    bias_filler {
      type: "constant"
      value: 0
    }
  }
}
layer {
  name: "relu1_1"
  type: "ReLU"
  bottom: "conv1_1"
  top: "conv1_1"
}
layer {
  name: "conv1_2"
  type: "Convolution"
  bottom: "conv1_1"
  top: "conv1_2"
  param {
    lr_mult: 1
    decay_mult: 1
  }
  param {
    lr_mult: 2
    decay_mult: 0
  }
  convolution_param {
    num_output: 64
    pad: 1
    kernel_size: 3
    weight_filler {
      type: "xavier"
    }
    bias_filler {
      type: "constant"
      value: 0
    }
  }
}
layer {
  name: "relu1_2"
  type: "ReLU"
  bottom: "conv1_2"
  top: "conv1_2"
}
layer {
  name: "pool1"
  type: "Pooling"
  bottom: "conv1_2"
  top: "pool1"
  pooling_param {
    pool: MAX
    kernel_size: 2
    stride: 2
  }
}
layer {
  name: "conv2_1"
  type: "Convolution"
  bottom: "pool1"
  top: "conv2_1"
  param {
    lr_mult: 1
    decay_mult: 1
  }
  param {
    lr_mult: 2
    decay_mult: 0
  }
  convolution_param {
    num_output: 128
    pad: 1
    kernel_size: 3
    weight_filler {
      type: "xavier"
    }
    bias_filler {
      type: "constant"
      value: 0
    }
  }
}
layer {
  name: "relu2_1"
  type: "ReLU"
  bottom: "conv2_1"
  top: "conv2_1"
}
layer {
  name: "conv2_2"
  type: "Convolution"
  bottom: "conv2_1"
  top: "conv2_2"
  param {
    lr_mult: 1
    decay_mult: 1
  }
  param {
    lr_mult: 2
    decay_mult: 0
  }
  convolution_param {
    num_output: 128
    pad: 1
    kernel_size: 3
    weight_filler {
      type: "xavier"
    }
    bias_filler {
      type: "constant"
      value: 0
    }
  }
}
layer {
  name: "relu2_2"
  type: "ReLU"
  bottom: "conv2_2"
  top: "conv2_2"
}
layer {
  name: "pool2"
  type: "Pooling"
  bottom: "conv2_2"
  top: "pool2"
  pooling_param {
    pool: MAX
    kernel_size: 2
    stride: 2
  }
}
layer {
  name: "conv3_1"
  type: "Convolution"
  bottom: "pool2"
  top: "conv3_1"
  param {
    lr_mult: 1
    decay_mult: 1
  }
  param {
    lr_mult: 2
    decay_mult: 0
  }
  convolution_param {
    num_output: 256
    pad: 1
    kernel_size: 3
    weight_filler {
      type: "xavier"
    }
    bias_filler {
      type: "constant"
      value: 0
    }
  }
}
layer {
  name: "relu3_1"
  type: "ReLU"
  bottom: "conv3_1"
  top: "conv3_1"
}
layer {
  name: "conv3_2"
  type: "Convolution"
  bottom: "conv3_1"
  top: "conv3_2"
  param {
    lr_mult: 1
    decay_mult: 1
  }
  param {
    lr_mult: 2
    decay_mult: 0
  }
  convolution_param {
    num_output: 256
    pad: 1
    kernel_size: 3
    weight_filler {
      type: "xavier"
    }
    bias_filler {
      type: "constant"
      value: 0
    }
  }
}
layer {
  name: "relu3_2"
  type: "ReLU"
  bottom: "conv3_2"
  top: "conv3_2"
}
layer {
  name: "conv3_3"
  type: "Convolution"
  bottom: "conv3_2"
  top: "conv3_3"
  param {
    lr_mult: 1
    decay_mult: 1
  }
  param {
    lr_mult: 2
    decay_mult: 0
  }
  convolution_param {
    num_output: 256
    pad: 1
    kernel_size: 3
    weight_filler {
      type: "xavier"
    }
    bias_filler {
      type: "constant"
      value: 0
    }
  }
}
layer {
  name: "relu3_3"
  type: "ReLU"
  bottom: "conv3_3"
  top: "conv3_3"
}
layer {
  name: "pool3"
  type: "Pooling"
  bottom: "conv3_3"
  top: "pool3"
  pooling_param {
    pool: MAX
    kernel_size: 2
    stride: 2
  }
}
layer {
  name: "conv4_1"
  type: "Convolution"
  bottom: "pool3"
  top: "conv4_1"
  param {
    lr_mult: 1
    decay_mult: 1
  }
  param {
    lr_mult: 2
    decay_mult: 0
  }
  convolution_param {
    num_output: 512
    pad: 1
    kernel_size: 3
    weight_filler {
      type: "xavier"
    }
    bias_filler {
      type: "constant"
      value: 0
    }
  }
}
layer {
  name: "relu4_1"
  type: "ReLU"
  bottom: "conv4_1"
  top: "conv4_1"
}
layer {
  name: "conv4_2"
  type: "Convolution"
  bottom: "conv4_1"
  top: "conv4_2"
  param {
    lr_mult: 1
    decay_mult: 1
  }
  param {
    lr_mult: 2
    decay_mult: 0
  }
  convolution_param {
    num_output: 512
    pad: 1
    kernel_size: 3
    weight_filler {
      type: "xavier"
    }
    bias_filler {
      type: "constant"
      value: 0
    }
  }
}
layer {
  name: "relu4_2"
  type: "ReLU"
  bottom: "conv4_2"
  top: "conv4_2"
}
layer {
  name: "conv4_3"
  type: "Convolution"
  bottom: "conv4_2"
  top: "conv4_3"
  param {
    lr_mult: 1
    decay_mult: 1
  }
  param {
    lr_mult: 2
    decay_mult: 0
  }
  convolution_param {
    num_output: 512
    pad: 1
    kernel_size: 3
    weight_filler {
      type: "xavier"
    }
    bias_filler {
      type: "constant"
      value: 0
    }
  }
}
layer {
  name: "relu4_3"
  type: "ReLU"
  bottom: "conv4_3"
  top: "conv4_3"
}
layer {
  name: "pool4"
  type: "Pooling"
  bottom: "conv4_3"
  top: "pool4"
  pooling_param {
    pool: MAX
    kernel_size: 2
    stride: 2
  }
}
layer {
  name: "conv5_1"
  type: "Convolution"
  bottom: "pool4"
  top: "conv5_1"
  param {
    lr_mult: 1
    decay_mult: 1
  }
  param {
    lr_mult: 2
    decay_mult: 0
  }
  convolution_param {
    num_output: 512
    pad: 1
    kernel_size: 3
    weight_filler {
      type: "xavier"
    }
    bias_filler {
      type: "constant"
      value: 0
    }
    dilation: 1
  }
}
layer {
  name: "relu5_1"
  type: "ReLU"
  bottom: "conv5_1"
  top: "conv5_1"
}
layer {
  name: "conv5_2"
  type: "Convolution"
  bottom: "conv5_1"
  top: "conv5_2"
  param {
    lr_mult: 1
    decay_mult: 1
  }
  param {
    lr_mult: 2
    decay_mult: 0
  }
  convolution_param {
    num_output: 512
    pad: 1
    kernel_size: 3
    weight_filler {
      type: "xavier"
    }
    bias_filler {
      type: "constant"
      value: 0
    }
    dilation: 1
  }
}
layer {
  name: "relu5_2"
  type: "ReLU"
  bottom: "conv5_2"
  top: "conv5_2"
}
layer {
  name: "conv5_3"
  type: "Convolution"
  bottom: "conv5_2"
  top: "conv5_3"
  param {
    lr_mult: 1
    decay_mult: 1
  }
  param {
    lr_mult: 2
    decay_mult: 0
  }
  convolution_param {
    num_output: 512
    pad: 1
    kernel_size: 3
    weight_filler {
      type: "xavier"
    }
    bias_filler {
      type: "constant"
      value: 0
    }
    dilation: 1
  }
}
layer {
  name: "relu5_3"
  type: "ReLU"
  bottom: "conv5_3"
  top: "conv5_3"
}
layer {
  name: "pool5"
  type: "Pooling"
  bottom: "conv5_3"
  top: "pool5"
  pooling_param {
    pool: MAX
    kernel_size: 3
    stride: 1
    pad: 1
  }
}
layer {
  name: "fc6_conv"
  type: "Convolution"
  bottom: "pool5"
  top: "fc6_conv"
  param {
    lr_mult: 1
    decay_mult: 1
  }
  param {
    lr_mult: 2
    decay_mult: 0
  }
  convolution_param {
    num_output: 1024
    pad: 6
    kernel_size: 3
    weight_filler {
      type: "xavier"
    }
    bias_filler {
      type: "constant"
      value: 0
    }
    dilation: 6
  }
}
layer {
  name: "relu6"
  type: "ReLU"
  bottom: "fc6_conv"
  top: "fc6_conv"
}
layer {
  name: "fc7_conv"
  type: "Convolution"
  bottom: "fc6_conv"
  top: "fc7_conv"
  param {
    lr_mult: 1
    decay_mult: 1
  }
  param {
    lr_mult: 2
    decay_mult: 0
  }
  convolution_param {
    num_output: 1024
    kernel_size: 1
    weight_filler {
      type: "xavier"
    }
    bias_filler {
      type: "constant"
      value: 0
    }
  }
}
layer {
  name: "relu7"
  type: "ReLU"
  bottom: "fc7_conv"
  top: "fc7_conv"
}
layer {
  name: "conv6_1"
  type: "Convolution"
  bottom: "fc7_conv"
  top: "conv6_1"
  param {
    lr_mult: 1
    decay_mult: 1
  }
  param {
    lr_mult: 2
    decay_mult: 0
  }
  convolution_param {
    num_output: 256
    pad: 0
    kernel_size: 1
    stride: 1
    weight_filler {
      type: "xavier"
    }
    bias_filler {
      type: "constant"
      value: 0
    }
  }
}
layer {
  name: "conv6_1_relu"
  type: "ReLU"
  bottom: "conv6_1"
  top: "conv6_1"
}
layer {
  name: "conv6_2"
  type: "Convolution"
  bottom: "conv6_1"
  top: "conv6_2"
  param {
    lr_mult: 1
    decay_mult: 1
  }
  param {
    lr_mult: 2
    decay_mult: 0
  }
  convolution_param {
    num_output: 512
    pad: 1
    kernel_size: 3
    stride: 2
    weight_filler {
      type: "xavier"
    }
    bias_filler {
      type: "constant"
      value: 0
    }
  }
}
layer {
  name: "conv6_2_relu"
  type: "ReLU"
  bottom: "conv6_2"
  top: "conv6_2"
}
layer {
  name: "conv7_1"
  type: "Convolution"
  bottom: "conv6_2"
  top: "conv7_1"
  param {
    lr_mult: 1
    decay_mult: 1
  }
  param {
    lr_mult: 2
    decay_mult: 0
  }
  convolution_param {
    num_output: 128
    pad: 0
    kernel_size: 1
    stride: 1
    weight_filler {
      type: "xavier"
    }
    bias_filler {
      type: "constant"
      value: 0
    }
  }
}
layer {
  name: "conv7_1_relu"
  type: "ReLU"
  bottom: "conv7_1"
  top: "conv7_1"
}
layer {
  name: "conv7_2"
  type: "Convolution"
  bottom: "conv7_1"
  top: "conv7_2"
  param {
    lr_mult: 1
    decay_mult: 1
  }
  param {
    lr_mult: 2
    decay_mult: 0
  }
  convolution_param {
    num_output: 256
    pad: 1
    kernel_size: 3
    stride: 2
    weight_filler {
      type: "xavier"
    }
    bias_filler {
      type: "constant"
      value: 0
    }
  }
}
layer {
  name: "conv7_2_relu"
  type: "ReLU"
  bottom: "conv7_2"
  top: "conv7_2"
}
layer {
  name: "conv8_1"
  type: "Convolution"
  bottom: "conv7_2"
  top: "conv8_1"
  param {
    lr_mult: 1
    decay_mult: 1
  }
  param {
    lr_mult: 2
    decay_mult: 0
  }
  convolution_param {
    num_output: 128
    pad: 0
    kernel_size: 1
    stride: 1
    weight_filler {
      type: "xavier"
    }
    bias_filler {
      type: "constant"
      value: 0
    }
  }
}
layer {
  name: "conv8_1_relu"
  type: "ReLU"
  bottom: "conv8_1"
  top: "conv8_1"
}
layer {
  name: "conv8_2"
  type: "Convolution"
  bottom: "conv8_1"
  top: "conv8_2"
  param {
    lr_mult: 1
    decay_mult: 1
  }
  param {
    lr_mult: 2
    decay_mult: 0
  }
  convolution_param {
    num_output: 256
    pad: 1
    kernel_size: 3
    stride: 2
    weight_filler {
      type: "xavier"
    }
    bias_filler {
      type: "constant"
      value: 0
    }
  }
}
layer {
  name: "conv8_2_relu"
  type: "ReLU"
  bottom: "conv8_2"
  top: "conv8_2"
}
layer {
  name: "pool6"
  type: "Pooling"
  bottom: "conv8_2"
  top: "pool6"
  pooling_param {
    pool: AVE
    global_pooling: true
  }
}
layer {
  name: "conv4_3_norm"
  type: "Normalize"
  bottom: "conv4_3"
  top: "conv4_3_norm"
  norm_param {
    across_spatial: false
    scale_filler {
      type: "constant"
      value: 20
    }
    channel_shared: false
  }
}
layer {
  name: "conv4_3_norm_mbox_loc"
  type: "Convolution"
  bottom: "conv4_3_norm"
  top: "conv4_3_norm_mbox_loc"
  param {
    lr_mult: 1
    decay_mult: 1
  }
  param {
    lr_mult: 2
    decay_mult: 0
  }
  convolution_param {
    num_output: 16
    pad: 1
    kernel_size: 3
    stride: 1
    weight_filler {
      type: "xavier"
    }
    bias_filler {
      type: "constant"
      value: 0
    }
  }
}
layer {
  name: "conv4_3_norm_mbox_loc_perm"
  type: "Permute"
  bottom: "conv4_3_norm_mbox_loc"
  top: "conv4_3_norm_mbox_loc_perm"
  permute_param {
    order: 0
    order: 2
    order: 3
    order: 1
  }
}
layer {
  name: "conv4_3_norm_mbox_loc_flat"
  type: "Flatten"
  bottom: "conv4_3_norm_mbox_loc_perm"
  top: "conv4_3_norm_mbox_loc_flat"
  flatten_param {
    axis: 1
  }
}
layer {
  name: "conv4_3_norm_mbox_conf"
  type: "Convolution"
  bottom: "conv4_3_norm"
  top: "conv4_3_norm_mbox_conf"
  param {
    lr_mult: 1
    decay_mult: 1
  }
  param {
    lr_mult: 2
    decay_mult: 0
  }
  convolution_param {
    num_output: 40
    pad: 1
    kernel_size: 3
    stride: 1
    weight_filler {
      type: "xavier"
    }
    bias_filler {
      type: "constant"
      value: 0
    }
  }
}
layer {
  name: "conv4_3_norm_mbox_conf_perm"
  type: "Permute"
  bottom: "conv4_3_norm_mbox_conf"
  top: "conv4_3_norm_mbox_conf_perm"
  permute_param {
    order: 0
    order: 2
    order: 3
    order: 1
  }
}
layer {
  name: "conv4_3_norm_mbox_conf_flat"
  type: "Flatten"
  bottom: "conv4_3_norm_mbox_conf_perm"
  top: "conv4_3_norm_mbox_conf_flat"
  flatten_param {
    axis: 1
  }
}
layer {
  name: "conv4_3_norm_mbox_priorbox"
  type: "PriorBox"
  bottom: "conv4_3_norm"
  bottom: "data"
  top: "conv4_3_norm_mbox_priorbox"
  prior_box_param {
    min_size: 22.748627
    max_size: 45.497253
    aspect_ratio: 2
    flip: true
    clip: false
    variance: 0.1
    variance: 0.1
    variance: 0.2
    variance: 0.2
    step: 8
    offset: 0.5
  }
}
layer {
  name: "fc7_conv_mbox_loc"
  type: "Convolution"
  bottom: "fc7_conv"
  top: "fc7_conv_mbox_loc"
  param {
    lr_mult: 1
    decay_mult: 1
  }
  param {
    lr_mult: 2
    decay_mult: 0
  }
  convolution_param {
    num_output: 24
    pad: 1
    kernel_size: 3
    stride: 1
    weight_filler {
      type: "xavier"
    }
    bias_filler {
      type: "constant"
      value: 0
    }
  }
}
layer {
  name: "fc7_conv_mbox_loc_perm"
  type: "Permute"
  bottom: "fc7_conv_mbox_loc"
  top: "fc7_conv_mbox_loc_perm"
  permute_param {
    order: 0
    order: 2
    order: 3
    order: 1
  }
}
layer {
  name: "fc7_conv_mbox_loc_flat"
  type: "Flatten"
  bottom: "fc7_conv_mbox_loc_perm"
  top: "fc7_conv_mbox_loc_flat"
  flatten_param {
    axis: 1
  }
}
layer {
  name: "fc7_conv_mbox_conf"
  type: "Convolution"
  bottom: "fc7_conv"
  top: "fc7_conv_mbox_conf"
  param {
    lr_mult: 1
    decay_mult: 1
  }
  param {
    lr_mult: 2
    decay_mult: 0
  }
  convolution_param {
    num_output: 60
    pad: 1
    kernel_size: 3
    stride: 1
    weight_filler {
      type: "xavier"
    }
    bias_filler {
      type: "constant"
      value: 0
    }
  }
}
layer {
  name: "fc7_conv_mbox_conf_perm"
  type: "Permute"
  bottom: "fc7_conv_mbox_conf"
  top: "fc7_conv_mbox_conf_perm"
  permute_param {
    order: 0
    order: 2
    order: 3
    order: 1
  }
}
layer {
  name: "fc7_conv_mbox_conf_flat"
  type: "Flatten"
  bottom: "fc7_conv_mbox_conf_perm"
  top: "fc7_conv_mbox_conf_flat"
  flatten_param {
    axis: 1
  }
}
layer {
  name: "fc7_conv_mbox_priorbox"
  type: "PriorBox"
  bottom: "fc7_conv"
  bottom: "data"
  top: "fc7_conv_mbox_priorbox"
  prior_box_param {
    min_size: 45.497253
    max_size: 84.169914
    aspect_ratio: 2
    aspect_ratio: 3
    flip: true
    clip: false
    variance: 0.1
    variance: 0.1
    variance: 0.2
    variance: 0.2
    step: 16
    offset: 0.5
  }
}
layer {
  name: "conv6_2_mbox_loc"
  type: "Convolution"
  bottom: "conv6_2"
  top: "conv6_2_mbox_loc"
  param {
    lr_mult: 1
    decay_mult: 1
  }
  param {
    lr_mult: 2
    decay_mult: 0
  }
  convolution_param {
    num_output: 24
    pad: 1
    kernel_size: 3
    stride: 1
    weight_filler {
      type: "xavier"
    }
    bias_filler {
      type: "constant"
      value: 0
    }
  }
}
layer {
  name: "conv6_2_mbox_loc_perm"
  type: "Permute"
  bottom: "conv6_2_mbox_loc"
  top: "conv6_2_mbox_loc_perm"
  permute_param {
    order: 0
    order: 2
    order: 3
    order: 1
  }
}
layer {
  name: "conv6_2_mbox_loc_flat"
  type: "Flatten"
  bottom: "conv6_2_mbox_loc_perm"
  top: "conv6_2_mbox_loc_flat"
  flatten_param {
    axis: 1
  }
}
layer {
  name: "conv6_2_mbox_conf"
  type: "Convolution"
  bottom: "conv6_2"
  top: "conv6_2_mbox_conf"
  param {
    lr_mult: 1
    decay_mult: 1
  }
  param {
    lr_mult: 2
    decay_mult: 0
  }
  convolution_param {
    num_output: 60
    pad: 1
    kernel_size: 3
    stride: 1
    weight_filler {
      type: "xavier"
    }
    bias_filler {
      type: "constant"
      value: 0
    }
  }
}
layer {
  name: "conv6_2_mbox_conf_perm"
  type: "Permute"
  bottom: "conv6_2_mbox_conf"
  top: "conv6_2_mbox_conf_perm"
  permute_param {
    order: 0
    order: 2
    order: 3
    order: 1
  }
}
layer {
  name: "conv6_2_mbox_conf_flat"
  type: "Flatten"
  bottom: "conv6_2_mbox_conf_perm"
  top: "conv6_2_mbox_conf_flat"
  flatten_param {
    axis: 1
  }
}
layer {
  name: "conv6_2_mbox_priorbox"
  type: "PriorBox"
  bottom: "conv6_2"
  bottom: "data"
  top: "conv6_2_mbox_priorbox"
  prior_box_param {
    min_size: 84.169914
    max_size: 122.84258
    aspect_ratio: 2
    aspect_ratio: 3
    flip: true
    clip: false
    variance: 0.1
    variance: 0.1
    variance: 0.2
    variance: 0.2
    step: 32
    offset: 0.5
  }
}
layer {
  name: "conv7_2_mbox_loc"
  type: "Convolution"
  bottom: "conv7_2"
  top: "conv7_2_mbox_loc"
  param {
    lr_mult: 1
    decay_mult: 1
  }
  param {
    lr_mult: 2
    decay_mult: 0
  }
  convolution_param {
    num_output: 24
    pad: 1
    kernel_size: 3
    stride: 1
    weight_filler {
      type: "xavier"
    }
    bias_filler {
      type: "constant"
      value: 0
    }
  }
}
layer {
  name: "conv7_2_mbox_loc_perm"
  type: "Permute"
  bottom: "conv7_2_mbox_loc"
  top: "conv7_2_mbox_loc_perm"
  permute_param {
    order: 0
    order: 2
    order: 3
    order: 1
  }
}
layer {
  name: "conv7_2_mbox_loc_flat"
  type: "Flatten"
  bottom: "conv7_2_mbox_loc_perm"
  top: "conv7_2_mbox_loc_flat"
  flatten_param {
    axis: 1
  }
}
layer {
  name: "conv7_2_mbox_conf"
  type: "Convolution"
  bottom: "conv7_2"
  top: "conv7_2_mbox_conf"
  param {
    lr_mult: 1
    decay_mult: 1
  }
  param {
    lr_mult: 2
    decay_mult: 0
  }
  convolution_param {
    num_output: 60
    pad: 1
    kernel_size: 3
    stride: 1
    weight_filler {
      type: "xavier"
    }
    bias_filler {
      type: "constant"
      value: 0
    }
  }
}
layer {
  name: "conv7_2_mbox_conf_perm"
  type: "Permute"
  bottom: "conv7_2_mbox_conf"
  top: "conv7_2_mbox_conf_perm"
  permute_param {
    order: 0
    order: 2
    order: 3
    order: 1
  }
}
layer {
  name: "conv7_2_mbox_conf_flat"
  type: "Flatten"
  bottom: "conv7_2_mbox_conf_perm"
  top: "conv7_2_mbox_conf_flat"
  flatten_param {
    axis: 1
  }
}
layer {
  name: "conv7_2_mbox_priorbox"
  type: "PriorBox"
  bottom: "conv7_2"
  bottom: "data"
  top: "conv7_2_mbox_priorbox"
  prior_box_param {
    min_size: 122.84258
    max_size: 161.51524
    aspect_ratio: 2
    aspect_ratio: 3
    flip: true
    clip: false
    variance: 0.1
    variance: 0.1
    variance: 0.2
    variance: 0.2
    step: 64
    offset: 0.5
  }
}
layer {
  name: "conv8_2_mbox_loc"
  type: "Convolution"
  bottom: "conv8_2"
  top: "conv8_2_mbox_loc"
  param {
    lr_mult: 1
    decay_mult: 1
  }
  param {
    lr_mult: 2
    decay_mult: 0
  }
  convolution_param {
    num_output: 16
    pad: 1
    kernel_size: 3
    stride: 1
    weight_filler {
      type: "xavier"
    }
    bias_filler {
      type: "constant"
      value: 0
    }
  }
}
layer {
  name: "conv8_2_mbox_loc_perm"
  type: "Permute"
  bottom: "conv8_2_mbox_loc"
  top: "conv8_2_mbox_loc_perm"
  permute_param {
    order: 0
    order: 2
    order: 3
    order: 1
  }
}
layer {
  name: "conv8_2_mbox_loc_flat"
  type: "Flatten"
  bottom: "conv8_2_mbox_loc_perm"
  top: "conv8_2_mbox_loc_flat"
  flatten_param {
    axis: 1
  }
}
layer {
  name: "conv8_2_mbox_conf"
  type: "Convolution"
  bottom: "conv8_2"
  top: "conv8_2_mbox_conf"
  param {
    lr_mult: 1
    decay_mult: 1
  }
  param {
    lr_mult: 2
    decay_mult: 0
  }
  convolution_param {
    num_output: 40
    pad: 1
    kernel_size: 3
    stride: 1
    weight_filler {
      type: "xavier"
    }
    bias_filler {
      type: "constant"
      value: 0
    }
  }
}
layer {
  name: "conv8_2_mbox_conf_perm"
  type: "Permute"
  bottom: "conv8_2_mbox_conf"
  top: "conv8_2_mbox_conf_perm"
  permute_param {
    order: 0
    order: 2
    order: 3
    order: 1
  }
}
layer {
  name: "conv8_2_mbox_conf_flat"
  type: "Flatten"
  bottom: "conv8_2_mbox_conf_perm"
  top: "conv8_2_mbox_conf_flat"
  flatten_param {
    axis: 1
  }
}
layer {
  name: "conv8_2_mbox_priorbox"
  type: "PriorBox"
  bottom: "conv8_2"
  bottom: "data"
  top: "conv8_2_mbox_priorbox"
  prior_box_param {
    min_size: 161.51524
    max_size: 200.18791
    aspect_ratio: 2
    flip: true
    clip: false
    variance: 0.1
    variance: 0.1
    variance: 0.2
    variance: 0.2
    step: 100
    offset: 0.5
  }
}
layer {
  name: "pool6_mbox_loc"
  type: "Convolution"
  bottom: "pool6"
  top: "pool6_mbox_loc"
  param {
    lr_mult: 1
    decay_mult: 1
  }
  param {
    lr_mult: 2
    decay_mult: 0
  }
  convolution_param {
    num_output: 16
    pad: 1
    kernel_size: 3
    stride: 1
    weight_filler {
      type: "xavier"
    }
    bias_filler {
      type: "constant"
      value: 0
    }
  }
}
layer {
  name: "pool6_mbox_loc_perm"
  type: "Permute"
  bottom: "pool6_mbox_loc"
  top: "pool6_mbox_loc_perm"
  permute_param {
    order: 0
    order: 2
    order: 3
    order: 1
  }
}
layer {
  name: "pool6_mbox_loc_flat"
  type: "Flatten"
  bottom: "pool6_mbox_loc_perm"
  top: "pool6_mbox_loc_flat"
  flatten_param {
    axis: 1
  }
}
layer {
  name: "pool6_mbox_conf"
  type: "Convolution"
  bottom: "pool6"
  top: "pool6_mbox_conf"
  param {
    lr_mult: 1
    decay_mult: 1
  }
  param {
    lr_mult: 2
    decay_mult: 0
  }
  convolution_param {
    num_output: 40
    pad: 1
    kernel_size: 3
    stride: 1
    weight_filler {
      type: "xavier"
    }
    bias_filler {
      type: "constant"
      value: 0
    }
  }
}
layer {
  name: "pool6_mbox_conf_perm"
  type: "Permute"
  bottom: "pool6_mbox_conf"
  top: "pool6_mbox_conf_perm"
  permute_param {
    order: 0
    order: 2
    order: 3
    order: 1
  }
}
layer {
  name: "pool6_mbox_conf_flat"
  type: "Flatten"
  bottom: "pool6_mbox_conf_perm"
  top: "pool6_mbox_conf_flat"
  flatten_param {
    axis: 1
  }
}
layer {
  name: "pool6_mbox_priorbox"
  type: "PriorBox"
  bottom: "pool6"
  bottom: "data"
  top: "pool6_mbox_priorbox"
  prior_box_param {
    min_size: 200.18791
    max_size: 238.86058
    aspect_ratio: 2
    flip: true
    clip: false
    variance: 0.1
    variance: 0.1
    variance: 0.2
    variance: 0.2
    step: 300
    offset: 0.5
  }
}
layer {
  name: "mbox_loc"
  type: "Concat"
  bottom: "conv4_3_norm_mbox_loc_flat"
  bottom: "fc7_conv_mbox_loc_flat"
  bottom: "conv6_2_mbox_loc_flat"
  bottom: "conv7_2_mbox_loc_flat"
  bottom: "conv8_2_mbox_loc_flat"
  bottom: "pool6_mbox_loc_flat"
  top: "mbox_loc"
  concat_param {
    axis: 1
  }
}
layer {
  name: "mbox_conf"
  type: "Concat"
  bottom: "conv4_3_norm_mbox_conf_flat"
  bottom: "fc7_conv_mbox_conf_flat"
  bottom: "conv6_2_mbox_conf_flat"
  bottom: "conv7_2_mbox_conf_flat"
  bottom: "conv8_2_mbox_conf_flat"
  bottom: "pool6_mbox_conf_flat"
  top: "mbox_conf"
  concat_param {
    axis: 1
  }
}
layer {
  name: "mbox_priorbox"
  type: "Concat"
  bottom: "conv4_3_norm_mbox_priorbox"
  bottom: "fc7_conv_mbox_priorbox"
  bottom: "conv6_2_mbox_priorbox"
  bottom: "conv7_2_mbox_priorbox"
  bottom: "conv8_2_mbox_priorbox"
  bottom: "pool6_mbox_priorbox"
  top: "mbox_priorbox"
  concat_param {
    axis: 2
  }
}
layer {
  name: "mbox_loss"
  type: "MultiBoxLoss"
  bottom: "mbox_loc"
  bottom: "mbox_conf"
  bottom: "mbox_priorbox"
  bottom: "label"
  top: "mbox_loss"
  include {
    phase: TRAIN
  }
  propagate_down: true
  propagate_down: true
  propagate_down: false
  propagate_down: false
  loss_param {
    normalization: VALID
  }
  multibox_loss_param {
    loc_loss_type: SMOOTH_L1
    conf_loss_type: SOFTMAX
    loc_weight: 1
    num_classes: 10
    share_location: true
    match_type: PER_PREDICTION
    overlap_threshold: 0.5
    use_prior_for_matching: true
    background_label_id: 9
    use_difficult_gt: true
    neg_pos_ratio: 3
    neg_overlap: 0.5
    code_type: CENTER_SIZE
    ignore_cross_boundary_bbox: false
    mining_type: MAX_NEGATIVE
  }
}
I0120 12:24:22.345861 29408 layer_factory.hpp:77] Creating layer data
I0120 12:24:22.346189 29408 net.cpp:100] Creating Layer data
I0120 12:24:22.346199 29408 net.cpp:408] data -> data
I0120 12:24:22.346223 29408 net.cpp:408] data -> label
I0120 12:24:22.346779 29427 db_lmdb.cpp:35] Opened lmdb /home/chenqi-didi/data/KITTI/lmdb/KITTI_trainval_lmdb
I0120 12:24:22.360829 29408 annotated_data_layer.cpp:62] output data size: 6,3,125,414
I0120 12:24:22.366170 29408 net.cpp:150] Setting up data
I0120 12:24:22.366190 29408 net.cpp:157] Top shape: 6 3 125 414 (931500)
I0120 12:24:22.366194 29408 net.cpp:157] Top shape: 1 1 18 8 (144)
I0120 12:24:22.366194 29408 net.cpp:165] Memory required for data: 3726576
I0120 12:24:22.366204 29408 layer_factory.hpp:77] Creating layer data_data_0_split
I0120 12:24:22.366214 29408 net.cpp:100] Creating Layer data_data_0_split
I0120 12:24:22.366217 29408 net.cpp:434] data_data_0_split <- data
I0120 12:24:22.366226 29408 net.cpp:408] data_data_0_split -> data_data_0_split_0
I0120 12:24:22.366235 29408 net.cpp:408] data_data_0_split -> data_data_0_split_1
I0120 12:24:22.366238 29408 net.cpp:408] data_data_0_split -> data_data_0_split_2
I0120 12:24:22.366253 29408 net.cpp:408] data_data_0_split -> data_data_0_split_3
I0120 12:24:22.366258 29408 net.cpp:408] data_data_0_split -> data_data_0_split_4
I0120 12:24:22.366261 29408 net.cpp:408] data_data_0_split -> data_data_0_split_5
I0120 12:24:22.366266 29408 net.cpp:408] data_data_0_split -> data_data_0_split_6
I0120 12:24:22.366322 29408 net.cpp:150] Setting up data_data_0_split
I0120 12:24:22.366327 29408 net.cpp:157] Top shape: 6 3 125 414 (931500)
I0120 12:24:22.366329 29408 net.cpp:157] Top shape: 6 3 125 414 (931500)
I0120 12:24:22.366331 29408 net.cpp:157] Top shape: 6 3 125 414 (931500)
I0120 12:24:22.366334 29408 net.cpp:157] Top shape: 6 3 125 414 (931500)
I0120 12:24:22.366336 29408 net.cpp:157] Top shape: 6 3 125 414 (931500)
I0120 12:24:22.366338 29408 net.cpp:157] Top shape: 6 3 125 414 (931500)
I0120 12:24:22.366341 29408 net.cpp:157] Top shape: 6 3 125 414 (931500)
I0120 12:24:22.366343 29408 net.cpp:165] Memory required for data: 29808576
I0120 12:24:22.366344 29408 layer_factory.hpp:77] Creating layer conv1_1
I0120 12:24:22.366354 29408 net.cpp:100] Creating Layer conv1_1
I0120 12:24:22.366358 29408 net.cpp:434] conv1_1 <- data_data_0_split_0
I0120 12:24:22.366363 29408 net.cpp:408] conv1_1 -> conv1_1
I0120 12:24:22.482600 29428 blocking_queue.cpp:50] Waiting for data
I0120 12:24:22.535943 29408 net.cpp:150] Setting up conv1_1
I0120 12:24:22.535964 29408 net.cpp:157] Top shape: 6 64 125 414 (19872000)
I0120 12:24:22.535966 29408 net.cpp:165] Memory required for data: 109296576
I0120 12:24:22.535979 29408 layer_factory.hpp:77] Creating layer relu1_1
I0120 12:24:22.535986 29408 net.cpp:100] Creating Layer relu1_1
I0120 12:24:22.535989 29408 net.cpp:434] relu1_1 <- conv1_1
I0120 12:24:22.535993 29408 net.cpp:395] relu1_1 -> conv1_1 (in-place)
I0120 12:24:22.536100 29408 net.cpp:150] Setting up relu1_1
I0120 12:24:22.536105 29408 net.cpp:157] Top shape: 6 64 125 414 (19872000)
I0120 12:24:22.536108 29408 net.cpp:165] Memory required for data: 188784576
I0120 12:24:22.536109 29408 layer_factory.hpp:77] Creating layer conv1_2
I0120 12:24:22.536118 29408 net.cpp:100] Creating Layer conv1_2
I0120 12:24:22.536119 29408 net.cpp:434] conv1_2 <- conv1_1
I0120 12:24:22.536123 29408 net.cpp:408] conv1_2 -> conv1_2
I0120 12:24:22.536885 29408 net.cpp:150] Setting up conv1_2
I0120 12:24:22.536892 29408 net.cpp:157] Top shape: 6 64 125 414 (19872000)
I0120 12:24:22.536895 29408 net.cpp:165] Memory required for data: 268272576
I0120 12:24:22.536900 29408 layer_factory.hpp:77] Creating layer relu1_2
I0120 12:24:22.536902 29408 net.cpp:100] Creating Layer relu1_2
I0120 12:24:22.536905 29408 net.cpp:434] relu1_2 <- conv1_2
I0120 12:24:22.536907 29408 net.cpp:395] relu1_2 -> conv1_2 (in-place)
I0120 12:24:22.537199 29408 net.cpp:150] Setting up relu1_2
I0120 12:24:22.537205 29408 net.cpp:157] Top shape: 6 64 125 414 (19872000)
I0120 12:24:22.537207 29408 net.cpp:165] Memory required for data: 347760576
I0120 12:24:22.537209 29408 layer_factory.hpp:77] Creating layer pool1
I0120 12:24:22.537214 29408 net.cpp:100] Creating Layer pool1
I0120 12:24:22.537215 29408 net.cpp:434] pool1 <- conv1_2
I0120 12:24:22.537217 29408 net.cpp:408] pool1 -> pool1
I0120 12:24:22.537246 29408 net.cpp:150] Setting up pool1
I0120 12:24:22.537250 29408 net.cpp:157] Top shape: 6 64 63 207 (5007744)
I0120 12:24:22.537252 29408 net.cpp:165] Memory required for data: 367791552
I0120 12:24:22.537253 29408 layer_factory.hpp:77] Creating layer conv2_1
I0120 12:24:22.537259 29408 net.cpp:100] Creating Layer conv2_1
I0120 12:24:22.537261 29408 net.cpp:434] conv2_1 <- pool1
I0120 12:24:22.537264 29408 net.cpp:408] conv2_1 -> conv2_1
I0120 12:24:22.539187 29408 net.cpp:150] Setting up conv2_1
I0120 12:24:22.539196 29408 net.cpp:157] Top shape: 6 128 63 207 (10015488)
I0120 12:24:22.539199 29408 net.cpp:165] Memory required for data: 407853504
I0120 12:24:22.539204 29408 layer_factory.hpp:77] Creating layer relu2_1
I0120 12:24:22.539209 29408 net.cpp:100] Creating Layer relu2_1
I0120 12:24:22.539211 29408 net.cpp:434] relu2_1 <- conv2_1
I0120 12:24:22.539225 29408 net.cpp:395] relu2_1 -> conv2_1 (in-place)
I0120 12:24:22.539530 29408 net.cpp:150] Setting up relu2_1
I0120 12:24:22.539536 29408 net.cpp:157] Top shape: 6 128 63 207 (10015488)
I0120 12:24:22.539538 29408 net.cpp:165] Memory required for data: 447915456
I0120 12:24:22.539541 29408 layer_factory.hpp:77] Creating layer conv2_2
I0120 12:24:22.539547 29408 net.cpp:100] Creating Layer conv2_2
I0120 12:24:22.539549 29408 net.cpp:434] conv2_2 <- conv2_1
I0120 12:24:22.539552 29408 net.cpp:408] conv2_2 -> conv2_2
I0120 12:24:22.540882 29408 net.cpp:150] Setting up conv2_2
I0120 12:24:22.540890 29408 net.cpp:157] Top shape: 6 128 63 207 (10015488)
I0120 12:24:22.540892 29408 net.cpp:165] Memory required for data: 487977408
I0120 12:24:22.540895 29408 layer_factory.hpp:77] Creating layer relu2_2
I0120 12:24:22.540899 29408 net.cpp:100] Creating Layer relu2_2
I0120 12:24:22.540901 29408 net.cpp:434] relu2_2 <- conv2_2
I0120 12:24:22.540904 29408 net.cpp:395] relu2_2 -> conv2_2 (in-place)
I0120 12:24:22.541007 29408 net.cpp:150] Setting up relu2_2
I0120 12:24:22.541013 29408 net.cpp:157] Top shape: 6 128 63 207 (10015488)
I0120 12:24:22.541014 29408 net.cpp:165] Memory required for data: 528039360
I0120 12:24:22.541015 29408 layer_factory.hpp:77] Creating layer pool2
I0120 12:24:22.541019 29408 net.cpp:100] Creating Layer pool2
I0120 12:24:22.541020 29408 net.cpp:434] pool2 <- conv2_2
I0120 12:24:22.541023 29408 net.cpp:408] pool2 -> pool2
I0120 12:24:22.541048 29408 net.cpp:150] Setting up pool2
I0120 12:24:22.541051 29408 net.cpp:157] Top shape: 6 128 32 104 (2555904)
I0120 12:24:22.541052 29408 net.cpp:165] Memory required for data: 538262976
I0120 12:24:22.541054 29408 layer_factory.hpp:77] Creating layer conv3_1
I0120 12:24:22.541059 29408 net.cpp:100] Creating Layer conv3_1
I0120 12:24:22.541061 29408 net.cpp:434] conv3_1 <- pool2
I0120 12:24:22.541065 29408 net.cpp:408] conv3_1 -> conv3_1
I0120 12:24:22.543182 29408 net.cpp:150] Setting up conv3_1
I0120 12:24:22.543191 29408 net.cpp:157] Top shape: 6 256 32 104 (5111808)
I0120 12:24:22.543193 29408 net.cpp:165] Memory required for data: 558710208
I0120 12:24:22.543200 29408 layer_factory.hpp:77] Creating layer relu3_1
I0120 12:24:22.543205 29408 net.cpp:100] Creating Layer relu3_1
I0120 12:24:22.543206 29408 net.cpp:434] relu3_1 <- conv3_1
I0120 12:24:22.543208 29408 net.cpp:395] relu3_1 -> conv3_1 (in-place)
I0120 12:24:22.543318 29408 net.cpp:150] Setting up relu3_1
I0120 12:24:22.543323 29408 net.cpp:157] Top shape: 6 256 32 104 (5111808)
I0120 12:24:22.543324 29408 net.cpp:165] Memory required for data: 579157440
I0120 12:24:22.543325 29408 layer_factory.hpp:77] Creating layer conv3_2
I0120 12:24:22.543331 29408 net.cpp:100] Creating Layer conv3_2
I0120 12:24:22.543334 29408 net.cpp:434] conv3_2 <- conv3_1
I0120 12:24:22.543336 29408 net.cpp:408] conv3_2 -> conv3_2
I0120 12:24:22.546849 29408 net.cpp:150] Setting up conv3_2
I0120 12:24:22.546861 29408 net.cpp:157] Top shape: 6 256 32 104 (5111808)
I0120 12:24:22.546864 29408 net.cpp:165] Memory required for data: 599604672
I0120 12:24:22.546869 29408 layer_factory.hpp:77] Creating layer relu3_2
I0120 12:24:22.546874 29408 net.cpp:100] Creating Layer relu3_2
I0120 12:24:22.546875 29408 net.cpp:434] relu3_2 <- conv3_2
I0120 12:24:22.546880 29408 net.cpp:395] relu3_2 -> conv3_2 (in-place)
I0120 12:24:22.546988 29408 net.cpp:150] Setting up relu3_2
I0120 12:24:22.546993 29408 net.cpp:157] Top shape: 6 256 32 104 (5111808)
I0120 12:24:22.546995 29408 net.cpp:165] Memory required for data: 620051904
I0120 12:24:22.546998 29408 layer_factory.hpp:77] Creating layer conv3_3
I0120 12:24:22.547005 29408 net.cpp:100] Creating Layer conv3_3
I0120 12:24:22.547008 29408 net.cpp:434] conv3_3 <- conv3_2
I0120 12:24:22.547010 29408 net.cpp:408] conv3_3 -> conv3_3
I0120 12:24:22.550426 29408 net.cpp:150] Setting up conv3_3
I0120 12:24:22.550434 29408 net.cpp:157] Top shape: 6 256 32 104 (5111808)
I0120 12:24:22.550436 29408 net.cpp:165] Memory required for data: 640499136
I0120 12:24:22.550439 29408 layer_factory.hpp:77] Creating layer relu3_3
I0120 12:24:22.550453 29408 net.cpp:100] Creating Layer relu3_3
I0120 12:24:22.550456 29408 net.cpp:434] relu3_3 <- conv3_3
I0120 12:24:22.550458 29408 net.cpp:395] relu3_3 -> conv3_3 (in-place)
I0120 12:24:22.550566 29408 net.cpp:150] Setting up relu3_3
I0120 12:24:22.550572 29408 net.cpp:157] Top shape: 6 256 32 104 (5111808)
I0120 12:24:22.550573 29408 net.cpp:165] Memory required for data: 660946368
I0120 12:24:22.550575 29408 layer_factory.hpp:77] Creating layer pool3
I0120 12:24:22.550580 29408 net.cpp:100] Creating Layer pool3
I0120 12:24:22.550581 29408 net.cpp:434] pool3 <- conv3_3
I0120 12:24:22.550585 29408 net.cpp:408] pool3 -> pool3
I0120 12:24:22.550611 29408 net.cpp:150] Setting up pool3
I0120 12:24:22.550613 29408 net.cpp:157] Top shape: 6 256 16 52 (1277952)
I0120 12:24:22.550616 29408 net.cpp:165] Memory required for data: 666058176
I0120 12:24:22.550617 29408 layer_factory.hpp:77] Creating layer conv4_1
I0120 12:24:22.550622 29408 net.cpp:100] Creating Layer conv4_1
I0120 12:24:22.550624 29408 net.cpp:434] conv4_1 <- pool3
I0120 12:24:22.550628 29408 net.cpp:408] conv4_1 -> conv4_1
I0120 12:24:22.556989 29408 net.cpp:150] Setting up conv4_1
I0120 12:24:22.557004 29408 net.cpp:157] Top shape: 6 512 16 52 (2555904)
I0120 12:24:22.557006 29408 net.cpp:165] Memory required for data: 676281792
I0120 12:24:22.557013 29408 layer_factory.hpp:77] Creating layer relu4_1
I0120 12:24:22.557018 29408 net.cpp:100] Creating Layer relu4_1
I0120 12:24:22.557020 29408 net.cpp:434] relu4_1 <- conv4_1
I0120 12:24:22.557024 29408 net.cpp:395] relu4_1 -> conv4_1 (in-place)
I0120 12:24:22.557334 29408 net.cpp:150] Setting up relu4_1
I0120 12:24:22.557340 29408 net.cpp:157] Top shape: 6 512 16 52 (2555904)
I0120 12:24:22.557343 29408 net.cpp:165] Memory required for data: 686505408
I0120 12:24:22.557344 29408 layer_factory.hpp:77] Creating layer conv4_2
I0120 12:24:22.557350 29408 net.cpp:100] Creating Layer conv4_2
I0120 12:24:22.557353 29408 net.cpp:434] conv4_2 <- conv4_1
I0120 12:24:22.557358 29408 net.cpp:408] conv4_2 -> conv4_2
I0120 12:24:22.567777 29408 net.cpp:150] Setting up conv4_2
I0120 12:24:22.567797 29408 net.cpp:157] Top shape: 6 512 16 52 (2555904)
I0120 12:24:22.567800 29408 net.cpp:165] Memory required for data: 696729024
I0120 12:24:22.567808 29408 layer_factory.hpp:77] Creating layer relu4_2
I0120 12:24:22.567814 29408 net.cpp:100] Creating Layer relu4_2
I0120 12:24:22.567817 29408 net.cpp:434] relu4_2 <- conv4_2
I0120 12:24:22.567821 29408 net.cpp:395] relu4_2 -> conv4_2 (in-place)
I0120 12:24:22.568218 29408 net.cpp:150] Setting up relu4_2
I0120 12:24:22.568225 29408 net.cpp:157] Top shape: 6 512 16 52 (2555904)
I0120 12:24:22.568228 29408 net.cpp:165] Memory required for data: 706952640
I0120 12:24:22.568229 29408 layer_factory.hpp:77] Creating layer conv4_3
I0120 12:24:22.568238 29408 net.cpp:100] Creating Layer conv4_3
I0120 12:24:22.568239 29408 net.cpp:434] conv4_3 <- conv4_2
I0120 12:24:22.568244 29408 net.cpp:408] conv4_3 -> conv4_3
I0120 12:24:22.579005 29408 net.cpp:150] Setting up conv4_3
I0120 12:24:22.579020 29408 net.cpp:157] Top shape: 6 512 16 52 (2555904)
I0120 12:24:22.579022 29408 net.cpp:165] Memory required for data: 717176256
I0120 12:24:22.579028 29408 layer_factory.hpp:77] Creating layer relu4_3
I0120 12:24:22.579035 29408 net.cpp:100] Creating Layer relu4_3
I0120 12:24:22.579037 29408 net.cpp:434] relu4_3 <- conv4_3
I0120 12:24:22.579041 29408 net.cpp:395] relu4_3 -> conv4_3 (in-place)
I0120 12:24:22.579147 29408 net.cpp:150] Setting up relu4_3
I0120 12:24:22.579152 29408 net.cpp:157] Top shape: 6 512 16 52 (2555904)
I0120 12:24:22.579154 29408 net.cpp:165] Memory required for data: 727399872
I0120 12:24:22.579155 29408 layer_factory.hpp:77] Creating layer conv4_3_relu4_3_0_split
I0120 12:24:22.579159 29408 net.cpp:100] Creating Layer conv4_3_relu4_3_0_split
I0120 12:24:22.579160 29408 net.cpp:434] conv4_3_relu4_3_0_split <- conv4_3
I0120 12:24:22.579166 29408 net.cpp:408] conv4_3_relu4_3_0_split -> conv4_3_relu4_3_0_split_0
I0120 12:24:22.579180 29408 net.cpp:408] conv4_3_relu4_3_0_split -> conv4_3_relu4_3_0_split_1
I0120 12:24:22.579206 29408 net.cpp:150] Setting up conv4_3_relu4_3_0_split
I0120 12:24:22.579210 29408 net.cpp:157] Top shape: 6 512 16 52 (2555904)
I0120 12:24:22.579212 29408 net.cpp:157] Top shape: 6 512 16 52 (2555904)
I0120 12:24:22.579213 29408 net.cpp:165] Memory required for data: 747847104
I0120 12:24:22.579216 29408 layer_factory.hpp:77] Creating layer pool4
I0120 12:24:22.579218 29408 net.cpp:100] Creating Layer pool4
I0120 12:24:22.579221 29408 net.cpp:434] pool4 <- conv4_3_relu4_3_0_split_0
I0120 12:24:22.579223 29408 net.cpp:408] pool4 -> pool4
I0120 12:24:22.579246 29408 net.cpp:150] Setting up pool4
I0120 12:24:22.579248 29408 net.cpp:157] Top shape: 6 512 8 26 (638976)
I0120 12:24:22.579251 29408 net.cpp:165] Memory required for data: 750403008
I0120 12:24:22.579252 29408 layer_factory.hpp:77] Creating layer conv5_1
I0120 12:24:22.579258 29408 net.cpp:100] Creating Layer conv5_1
I0120 12:24:22.579262 29408 net.cpp:434] conv5_1 <- pool4
I0120 12:24:22.579264 29408 net.cpp:408] conv5_1 -> conv5_1
I0120 12:24:22.590193 29408 net.cpp:150] Setting up conv5_1
I0120 12:24:22.590209 29408 net.cpp:157] Top shape: 6 512 8 26 (638976)
I0120 12:24:22.590211 29408 net.cpp:165] Memory required for data: 752958912
I0120 12:24:22.590217 29408 layer_factory.hpp:77] Creating layer relu5_1
I0120 12:24:22.590224 29408 net.cpp:100] Creating Layer relu5_1
I0120 12:24:22.590226 29408 net.cpp:434] relu5_1 <- conv5_1
I0120 12:24:22.590230 29408 net.cpp:395] relu5_1 -> conv5_1 (in-place)
I0120 12:24:22.590344 29408 net.cpp:150] Setting up relu5_1
I0120 12:24:22.590350 29408 net.cpp:157] Top shape: 6 512 8 26 (638976)
I0120 12:24:22.590353 29408 net.cpp:165] Memory required for data: 755514816
I0120 12:24:22.590354 29408 layer_factory.hpp:77] Creating layer conv5_2
I0120 12:24:22.590360 29408 net.cpp:100] Creating Layer conv5_2
I0120 12:24:22.590363 29408 net.cpp:434] conv5_2 <- conv5_1
I0120 12:24:22.590366 29408 net.cpp:408] conv5_2 -> conv5_2
I0120 12:24:22.601106 29408 net.cpp:150] Setting up conv5_2
I0120 12:24:22.601125 29408 net.cpp:157] Top shape: 6 512 8 26 (638976)
I0120 12:24:22.601126 29408 net.cpp:165] Memory required for data: 758070720
I0120 12:24:22.601132 29408 layer_factory.hpp:77] Creating layer relu5_2
I0120 12:24:22.601138 29408 net.cpp:100] Creating Layer relu5_2
I0120 12:24:22.601140 29408 net.cpp:434] relu5_2 <- conv5_2
I0120 12:24:22.601145 29408 net.cpp:395] relu5_2 -> conv5_2 (in-place)
I0120 12:24:22.601250 29408 net.cpp:150] Setting up relu5_2
I0120 12:24:22.601255 29408 net.cpp:157] Top shape: 6 512 8 26 (638976)
I0120 12:24:22.601256 29408 net.cpp:165] Memory required for data: 760626624
I0120 12:24:22.601258 29408 layer_factory.hpp:77] Creating layer conv5_3
I0120 12:24:22.601265 29408 net.cpp:100] Creating Layer conv5_3
I0120 12:24:22.601267 29408 net.cpp:434] conv5_3 <- conv5_2
I0120 12:24:22.601271 29408 net.cpp:408] conv5_3 -> conv5_3
I0120 12:24:22.612053 29408 net.cpp:150] Setting up conv5_3
I0120 12:24:22.612071 29408 net.cpp:157] Top shape: 6 512 8 26 (638976)
I0120 12:24:22.612073 29408 net.cpp:165] Memory required for data: 763182528
I0120 12:24:22.612078 29408 layer_factory.hpp:77] Creating layer relu5_3
I0120 12:24:22.612089 29408 net.cpp:100] Creating Layer relu5_3
I0120 12:24:22.612093 29408 net.cpp:434] relu5_3 <- conv5_3
I0120 12:24:22.612097 29408 net.cpp:395] relu5_3 -> conv5_3 (in-place)
I0120 12:24:22.612201 29408 net.cpp:150] Setting up relu5_3
I0120 12:24:22.612206 29408 net.cpp:157] Top shape: 6 512 8 26 (638976)
I0120 12:24:22.612208 29408 net.cpp:165] Memory required for data: 765738432
I0120 12:24:22.612210 29408 layer_factory.hpp:77] Creating layer pool5
I0120 12:24:22.612215 29408 net.cpp:100] Creating Layer pool5
I0120 12:24:22.612216 29408 net.cpp:434] pool5 <- conv5_3
I0120 12:24:22.612221 29408 net.cpp:408] pool5 -> pool5
I0120 12:24:22.612249 29408 net.cpp:150] Setting up pool5
I0120 12:24:22.612253 29408 net.cpp:157] Top shape: 6 512 8 26 (638976)
I0120 12:24:22.612254 29408 net.cpp:165] Memory required for data: 768294336
I0120 12:24:22.612267 29408 layer_factory.hpp:77] Creating layer fc6_conv
I0120 12:24:22.612273 29408 net.cpp:100] Creating Layer fc6_conv
I0120 12:24:22.612275 29408 net.cpp:434] fc6_conv <- pool5
I0120 12:24:22.612279 29408 net.cpp:408] fc6_conv -> fc6_conv
I0120 12:24:22.632202 29408 net.cpp:150] Setting up fc6_conv
I0120 12:24:22.632222 29408 net.cpp:157] Top shape: 6 1024 8 26 (1277952)
I0120 12:24:22.632225 29408 net.cpp:165] Memory required for data: 773406144
I0120 12:24:22.632230 29408 layer_factory.hpp:77] Creating layer relu6
I0120 12:24:22.632236 29408 net.cpp:100] Creating Layer relu6
I0120 12:24:22.632238 29408 net.cpp:434] relu6 <- fc6_conv
I0120 12:24:22.632241 29408 net.cpp:395] relu6 -> fc6_conv (in-place)
I0120 12:24:22.632700 29408 net.cpp:150] Setting up relu6
I0120 12:24:22.632709 29408 net.cpp:157] Top shape: 6 1024 8 26 (1277952)
I0120 12:24:22.632710 29408 net.cpp:165] Memory required for data: 778517952
I0120 12:24:22.632711 29408 layer_factory.hpp:77] Creating layer fc7_conv
I0120 12:24:22.632719 29408 net.cpp:100] Creating Layer fc7_conv
I0120 12:24:22.632722 29408 net.cpp:434] fc7_conv <- fc6_conv
I0120 12:24:22.632725 29408 net.cpp:408] fc7_conv -> fc7_conv
I0120 12:24:22.637917 29408 net.cpp:150] Setting up fc7_conv
I0120 12:24:22.637928 29408 net.cpp:157] Top shape: 6 1024 8 26 (1277952)
I0120 12:24:22.637930 29408 net.cpp:165] Memory required for data: 783629760
I0120 12:24:22.637934 29408 layer_factory.hpp:77] Creating layer relu7
I0120 12:24:22.637939 29408 net.cpp:100] Creating Layer relu7
I0120 12:24:22.637941 29408 net.cpp:434] relu7 <- fc7_conv
I0120 12:24:22.637948 29408 net.cpp:395] relu7 -> fc7_conv (in-place)
I0120 12:24:22.638056 29408 net.cpp:150] Setting up relu7
I0120 12:24:22.638061 29408 net.cpp:157] Top shape: 6 1024 8 26 (1277952)
I0120 12:24:22.638062 29408 net.cpp:165] Memory required for data: 788741568
I0120 12:24:22.638064 29408 layer_factory.hpp:77] Creating layer fc7_conv_relu7_0_split
I0120 12:24:22.638068 29408 net.cpp:100] Creating Layer fc7_conv_relu7_0_split
I0120 12:24:22.638069 29408 net.cpp:434] fc7_conv_relu7_0_split <- fc7_conv
I0120 12:24:22.638073 29408 net.cpp:408] fc7_conv_relu7_0_split -> fc7_conv_relu7_0_split_0
I0120 12:24:22.638077 29408 net.cpp:408] fc7_conv_relu7_0_split -> fc7_conv_relu7_0_split_1
I0120 12:24:22.638084 29408 net.cpp:408] fc7_conv_relu7_0_split -> fc7_conv_relu7_0_split_2
I0120 12:24:22.638087 29408 net.cpp:408] fc7_conv_relu7_0_split -> fc7_conv_relu7_0_split_3
I0120 12:24:22.638128 29408 net.cpp:150] Setting up fc7_conv_relu7_0_split
I0120 12:24:22.638134 29408 net.cpp:157] Top shape: 6 1024 8 26 (1277952)
I0120 12:24:22.638137 29408 net.cpp:157] Top shape: 6 1024 8 26 (1277952)
I0120 12:24:22.638139 29408 net.cpp:157] Top shape: 6 1024 8 26 (1277952)
I0120 12:24:22.638140 29408 net.cpp:157] Top shape: 6 1024 8 26 (1277952)
I0120 12:24:22.638142 29408 net.cpp:165] Memory required for data: 809188800
I0120 12:24:22.638144 29408 layer_factory.hpp:77] Creating layer conv6_1
I0120 12:24:22.638149 29408 net.cpp:100] Creating Layer conv6_1
I0120 12:24:22.638152 29408 net.cpp:434] conv6_1 <- fc7_conv_relu7_0_split_0
I0120 12:24:22.638156 29408 net.cpp:408] conv6_1 -> conv6_1
I0120 12:24:22.640600 29408 net.cpp:150] Setting up conv6_1
I0120 12:24:22.640611 29408 net.cpp:157] Top shape: 6 256 8 26 (319488)
I0120 12:24:22.640614 29408 net.cpp:165] Memory required for data: 810466752
I0120 12:24:22.640619 29408 layer_factory.hpp:77] Creating layer conv6_1_relu
I0120 12:24:22.640624 29408 net.cpp:100] Creating Layer conv6_1_relu
I0120 12:24:22.640626 29408 net.cpp:434] conv6_1_relu <- conv6_1
I0120 12:24:22.640630 29408 net.cpp:395] conv6_1_relu -> conv6_1 (in-place)
I0120 12:24:22.640740 29408 net.cpp:150] Setting up conv6_1_relu
I0120 12:24:22.640745 29408 net.cpp:157] Top shape: 6 256 8 26 (319488)
I0120 12:24:22.640748 29408 net.cpp:165] Memory required for data: 811744704
I0120 12:24:22.640749 29408 layer_factory.hpp:77] Creating layer conv6_2
I0120 12:24:22.640756 29408 net.cpp:100] Creating Layer conv6_2
I0120 12:24:22.640769 29408 net.cpp:434] conv6_2 <- conv6_1
I0120 12:24:22.640774 29408 net.cpp:408] conv6_2 -> conv6_2
I0120 12:24:22.646618 29408 net.cpp:150] Setting up conv6_2
I0120 12:24:22.646636 29408 net.cpp:157] Top shape: 6 512 4 13 (159744)
I0120 12:24:22.646637 29408 net.cpp:165] Memory required for data: 812383680
I0120 12:24:22.646647 29408 layer_factory.hpp:77] Creating layer conv6_2_relu
I0120 12:24:22.646653 29408 net.cpp:100] Creating Layer conv6_2_relu
I0120 12:24:22.646656 29408 net.cpp:434] conv6_2_relu <- conv6_2
I0120 12:24:22.646659 29408 net.cpp:395] conv6_2_relu -> conv6_2 (in-place)
I0120 12:24:22.646765 29408 net.cpp:150] Setting up conv6_2_relu
I0120 12:24:22.646771 29408 net.cpp:157] Top shape: 6 512 4 13 (159744)
I0120 12:24:22.646773 29408 net.cpp:165] Memory required for data: 813022656
I0120 12:24:22.646775 29408 layer_factory.hpp:77] Creating layer conv6_2_conv6_2_relu_0_split
I0120 12:24:22.646778 29408 net.cpp:100] Creating Layer conv6_2_conv6_2_relu_0_split
I0120 12:24:22.646780 29408 net.cpp:434] conv6_2_conv6_2_relu_0_split <- conv6_2
I0120 12:24:22.646785 29408 net.cpp:408] conv6_2_conv6_2_relu_0_split -> conv6_2_conv6_2_relu_0_split_0
I0120 12:24:22.646788 29408 net.cpp:408] conv6_2_conv6_2_relu_0_split -> conv6_2_conv6_2_relu_0_split_1
I0120 12:24:22.646791 29408 net.cpp:408] conv6_2_conv6_2_relu_0_split -> conv6_2_conv6_2_relu_0_split_2
I0120 12:24:22.646795 29408 net.cpp:408] conv6_2_conv6_2_relu_0_split -> conv6_2_conv6_2_relu_0_split_3
I0120 12:24:22.646836 29408 net.cpp:150] Setting up conv6_2_conv6_2_relu_0_split
I0120 12:24:22.646839 29408 net.cpp:157] Top shape: 6 512 4 13 (159744)
I0120 12:24:22.646842 29408 net.cpp:157] Top shape: 6 512 4 13 (159744)
I0120 12:24:22.646843 29408 net.cpp:157] Top shape: 6 512 4 13 (159744)
I0120 12:24:22.646847 29408 net.cpp:157] Top shape: 6 512 4 13 (159744)
I0120 12:24:22.646847 29408 net.cpp:165] Memory required for data: 815578560
I0120 12:24:22.646848 29408 layer_factory.hpp:77] Creating layer conv7_1
I0120 12:24:22.646855 29408 net.cpp:100] Creating Layer conv7_1
I0120 12:24:22.646858 29408 net.cpp:434] conv7_1 <- conv6_2_conv6_2_relu_0_split_0
I0120 12:24:22.646862 29408 net.cpp:408] conv7_1 -> conv7_1
I0120 12:24:22.647805 29408 net.cpp:150] Setting up conv7_1
I0120 12:24:22.647812 29408 net.cpp:157] Top shape: 6 128 4 13 (39936)
I0120 12:24:22.647814 29408 net.cpp:165] Memory required for data: 815738304
I0120 12:24:22.647819 29408 layer_factory.hpp:77] Creating layer conv7_1_relu
I0120 12:24:22.647821 29408 net.cpp:100] Creating Layer conv7_1_relu
I0120 12:24:22.647824 29408 net.cpp:434] conv7_1_relu <- conv7_1
I0120 12:24:22.647826 29408 net.cpp:395] conv7_1_relu -> conv7_1 (in-place)
I0120 12:24:22.647930 29408 net.cpp:150] Setting up conv7_1_relu
I0120 12:24:22.647935 29408 net.cpp:157] Top shape: 6 128 4 13 (39936)
I0120 12:24:22.647936 29408 net.cpp:165] Memory required for data: 815898048
I0120 12:24:22.647939 29408 layer_factory.hpp:77] Creating layer conv7_2
I0120 12:24:22.647944 29408 net.cpp:100] Creating Layer conv7_2
I0120 12:24:22.647946 29408 net.cpp:434] conv7_2 <- conv7_1
I0120 12:24:22.647949 29408 net.cpp:408] conv7_2 -> conv7_2
I0120 12:24:22.650202 29408 net.cpp:150] Setting up conv7_2
I0120 12:24:22.650210 29408 net.cpp:157] Top shape: 6 256 2 7 (21504)
I0120 12:24:22.650213 29408 net.cpp:165] Memory required for data: 815984064
I0120 12:24:22.650216 29408 layer_factory.hpp:77] Creating layer conv7_2_relu
I0120 12:24:22.650219 29408 net.cpp:100] Creating Layer conv7_2_relu
I0120 12:24:22.650221 29408 net.cpp:434] conv7_2_relu <- conv7_2
I0120 12:24:22.650225 29408 net.cpp:395] conv7_2_relu -> conv7_2 (in-place)
I0120 12:24:22.650331 29408 net.cpp:150] Setting up conv7_2_relu
I0120 12:24:22.650337 29408 net.cpp:157] Top shape: 6 256 2 7 (21504)
I0120 12:24:22.650338 29408 net.cpp:165] Memory required for data: 816070080
I0120 12:24:22.650341 29408 layer_factory.hpp:77] Creating layer conv7_2_conv7_2_relu_0_split
I0120 12:24:22.650343 29408 net.cpp:100] Creating Layer conv7_2_conv7_2_relu_0_split
I0120 12:24:22.650354 29408 net.cpp:434] conv7_2_conv7_2_relu_0_split <- conv7_2
I0120 12:24:22.650358 29408 net.cpp:408] conv7_2_conv7_2_relu_0_split -> conv7_2_conv7_2_relu_0_split_0
I0120 12:24:22.650363 29408 net.cpp:408] conv7_2_conv7_2_relu_0_split -> conv7_2_conv7_2_relu_0_split_1
I0120 12:24:22.650367 29408 net.cpp:408] conv7_2_conv7_2_relu_0_split -> conv7_2_conv7_2_relu_0_split_2
I0120 12:24:22.650370 29408 net.cpp:408] conv7_2_conv7_2_relu_0_split -> conv7_2_conv7_2_relu_0_split_3
I0120 12:24:22.650413 29408 net.cpp:150] Setting up conv7_2_conv7_2_relu_0_split
I0120 12:24:22.650416 29408 net.cpp:157] Top shape: 6 256 2 7 (21504)
I0120 12:24:22.650418 29408 net.cpp:157] Top shape: 6 256 2 7 (21504)
I0120 12:24:22.650420 29408 net.cpp:157] Top shape: 6 256 2 7 (21504)
I0120 12:24:22.650423 29408 net.cpp:157] Top shape: 6 256 2 7 (21504)
I0120 12:24:22.650424 29408 net.cpp:165] Memory required for data: 816414144
I0120 12:24:22.650425 29408 layer_factory.hpp:77] Creating layer conv8_1
I0120 12:24:22.650431 29408 net.cpp:100] Creating Layer conv8_1
I0120 12:24:22.650434 29408 net.cpp:434] conv8_1 <- conv7_2_conv7_2_relu_0_split_0
I0120 12:24:22.650437 29408 net.cpp:408] conv8_1 -> conv8_1
I0120 12:24:22.651243 29408 net.cpp:150] Setting up conv8_1
I0120 12:24:22.651252 29408 net.cpp:157] Top shape: 6 128 2 7 (10752)
I0120 12:24:22.651252 29408 net.cpp:165] Memory required for data: 816457152
I0120 12:24:22.651257 29408 layer_factory.hpp:77] Creating layer conv8_1_relu
I0120 12:24:22.651260 29408 net.cpp:100] Creating Layer conv8_1_relu
I0120 12:24:22.651262 29408 net.cpp:434] conv8_1_relu <- conv8_1
I0120 12:24:22.651265 29408 net.cpp:395] conv8_1_relu -> conv8_1 (in-place)
I0120 12:24:22.651589 29408 net.cpp:150] Setting up conv8_1_relu
I0120 12:24:22.651597 29408 net.cpp:157] Top shape: 6 128 2 7 (10752)
I0120 12:24:22.651598 29408 net.cpp:165] Memory required for data: 816500160
I0120 12:24:22.651600 29408 layer_factory.hpp:77] Creating layer conv8_2
I0120 12:24:22.651605 29408 net.cpp:100] Creating Layer conv8_2
I0120 12:24:22.651607 29408 net.cpp:434] conv8_2 <- conv8_1
I0120 12:24:22.651612 29408 net.cpp:408] conv8_2 -> conv8_2
I0120 12:24:22.653851 29408 net.cpp:150] Setting up conv8_2
I0120 12:24:22.653861 29408 net.cpp:157] Top shape: 6 256 1 4 (6144)
I0120 12:24:22.653862 29408 net.cpp:165] Memory required for data: 816524736
I0120 12:24:22.653867 29408 layer_factory.hpp:77] Creating layer conv8_2_relu
I0120 12:24:22.653869 29408 net.cpp:100] Creating Layer conv8_2_relu
I0120 12:24:22.653872 29408 net.cpp:434] conv8_2_relu <- conv8_2
I0120 12:24:22.653874 29408 net.cpp:395] conv8_2_relu -> conv8_2 (in-place)
I0120 12:24:22.653986 29408 net.cpp:150] Setting up conv8_2_relu
I0120 12:24:22.653992 29408 net.cpp:157] Top shape: 6 256 1 4 (6144)
I0120 12:24:22.653995 29408 net.cpp:165] Memory required for data: 816549312
I0120 12:24:22.653995 29408 layer_factory.hpp:77] Creating layer conv8_2_conv8_2_relu_0_split
I0120 12:24:22.654000 29408 net.cpp:100] Creating Layer conv8_2_conv8_2_relu_0_split
I0120 12:24:22.654002 29408 net.cpp:434] conv8_2_conv8_2_relu_0_split <- conv8_2
I0120 12:24:22.654006 29408 net.cpp:408] conv8_2_conv8_2_relu_0_split -> conv8_2_conv8_2_relu_0_split_0
I0120 12:24:22.654009 29408 net.cpp:408] conv8_2_conv8_2_relu_0_split -> conv8_2_conv8_2_relu_0_split_1
I0120 12:24:22.654013 29408 net.cpp:408] conv8_2_conv8_2_relu_0_split -> conv8_2_conv8_2_relu_0_split_2
I0120 12:24:22.654017 29408 net.cpp:408] conv8_2_conv8_2_relu_0_split -> conv8_2_conv8_2_relu_0_split_3
I0120 12:24:22.654057 29408 net.cpp:150] Setting up conv8_2_conv8_2_relu_0_split
I0120 12:24:22.654060 29408 net.cpp:157] Top shape: 6 256 1 4 (6144)
I0120 12:24:22.654062 29408 net.cpp:157] Top shape: 6 256 1 4 (6144)
I0120 12:24:22.654064 29408 net.cpp:157] Top shape: 6 256 1 4 (6144)
I0120 12:24:22.654067 29408 net.cpp:157] Top shape: 6 256 1 4 (6144)
I0120 12:24:22.654067 29408 net.cpp:165] Memory required for data: 816647616
I0120 12:24:22.654069 29408 layer_factory.hpp:77] Creating layer pool6
I0120 12:24:22.654083 29408 net.cpp:100] Creating Layer pool6
I0120 12:24:22.654084 29408 net.cpp:434] pool6 <- conv8_2_conv8_2_relu_0_split_0
I0120 12:24:22.654088 29408 net.cpp:408] pool6 -> pool6
I0120 12:24:22.654211 29408 net.cpp:150] Setting up pool6
I0120 12:24:22.654217 29408 net.cpp:157] Top shape: 6 256 1 1 (1536)
I0120 12:24:22.654218 29408 net.cpp:165] Memory required for data: 816653760
I0120 12:24:22.654220 29408 layer_factory.hpp:77] Creating layer pool6_pool6_0_split
I0120 12:24:22.654223 29408 net.cpp:100] Creating Layer pool6_pool6_0_split
I0120 12:24:22.654225 29408 net.cpp:434] pool6_pool6_0_split <- pool6
I0120 12:24:22.654228 29408 net.cpp:408] pool6_pool6_0_split -> pool6_pool6_0_split_0
I0120 12:24:22.654232 29408 net.cpp:408] pool6_pool6_0_split -> pool6_pool6_0_split_1
I0120 12:24:22.654235 29408 net.cpp:408] pool6_pool6_0_split -> pool6_pool6_0_split_2
I0120 12:24:22.654264 29408 net.cpp:150] Setting up pool6_pool6_0_split
I0120 12:24:22.654268 29408 net.cpp:157] Top shape: 6 256 1 1 (1536)
I0120 12:24:22.654270 29408 net.cpp:157] Top shape: 6 256 1 1 (1536)
I0120 12:24:22.654273 29408 net.cpp:157] Top shape: 6 256 1 1 (1536)
I0120 12:24:22.654274 29408 net.cpp:165] Memory required for data: 816672192
I0120 12:24:22.654275 29408 layer_factory.hpp:77] Creating layer conv4_3_norm
I0120 12:24:22.654279 29408 net.cpp:100] Creating Layer conv4_3_norm
I0120 12:24:22.654281 29408 net.cpp:434] conv4_3_norm <- conv4_3_relu4_3_0_split_1
I0120 12:24:22.654285 29408 net.cpp:408] conv4_3_norm -> conv4_3_norm
I0120 12:24:22.654379 29408 net.cpp:150] Setting up conv4_3_norm
I0120 12:24:22.654383 29408 net.cpp:157] Top shape: 6 512 16 52 (2555904)
I0120 12:24:22.654386 29408 net.cpp:165] Memory required for data: 826895808
I0120 12:24:22.654388 29408 layer_factory.hpp:77] Creating layer conv4_3_norm_conv4_3_norm_0_split
I0120 12:24:22.654392 29408 net.cpp:100] Creating Layer conv4_3_norm_conv4_3_norm_0_split
I0120 12:24:22.654393 29408 net.cpp:434] conv4_3_norm_conv4_3_norm_0_split <- conv4_3_norm
I0120 12:24:22.654397 29408 net.cpp:408] conv4_3_norm_conv4_3_norm_0_split -> conv4_3_norm_conv4_3_norm_0_split_0
I0120 12:24:22.654400 29408 net.cpp:408] conv4_3_norm_conv4_3_norm_0_split -> conv4_3_norm_conv4_3_norm_0_split_1
I0120 12:24:22.654403 29408 net.cpp:408] conv4_3_norm_conv4_3_norm_0_split -> conv4_3_norm_conv4_3_norm_0_split_2
I0120 12:24:22.654430 29408 net.cpp:150] Setting up conv4_3_norm_conv4_3_norm_0_split
I0120 12:24:22.654434 29408 net.cpp:157] Top shape: 6 512 16 52 (2555904)
I0120 12:24:22.654436 29408 net.cpp:157] Top shape: 6 512 16 52 (2555904)
I0120 12:24:22.654439 29408 net.cpp:157] Top shape: 6 512 16 52 (2555904)
I0120 12:24:22.654440 29408 net.cpp:165] Memory required for data: 857566656
I0120 12:24:22.654443 29408 layer_factory.hpp:77] Creating layer conv4_3_norm_mbox_loc
I0120 12:24:22.654448 29408 net.cpp:100] Creating Layer conv4_3_norm_mbox_loc
I0120 12:24:22.654450 29408 net.cpp:434] conv4_3_norm_mbox_loc <- conv4_3_norm_conv4_3_norm_0_split_0
I0120 12:24:22.654454 29408 net.cpp:408] conv4_3_norm_mbox_loc -> conv4_3_norm_mbox_loc
I0120 12:24:22.655611 29408 net.cpp:150] Setting up conv4_3_norm_mbox_loc
I0120 12:24:22.655617 29408 net.cpp:157] Top shape: 6 16 16 52 (79872)
I0120 12:24:22.655619 29408 net.cpp:165] Memory required for data: 857886144
I0120 12:24:22.655623 29408 layer_factory.hpp:77] Creating layer conv4_3_norm_mbox_loc_perm
I0120 12:24:22.655629 29408 net.cpp:100] Creating Layer conv4_3_norm_mbox_loc_perm
I0120 12:24:22.655632 29408 net.cpp:434] conv4_3_norm_mbox_loc_perm <- conv4_3_norm_mbox_loc
I0120 12:24:22.655635 29408 net.cpp:408] conv4_3_norm_mbox_loc_perm -> conv4_3_norm_mbox_loc_perm
I0120 12:24:22.655704 29408 net.cpp:150] Setting up conv4_3_norm_mbox_loc_perm
I0120 12:24:22.655709 29408 net.cpp:157] Top shape: 6 16 52 16 (79872)
I0120 12:24:22.655710 29408 net.cpp:165] Memory required for data: 858205632
I0120 12:24:22.655712 29408 layer_factory.hpp:77] Creating layer conv4_3_norm_mbox_loc_flat
I0120 12:24:22.655716 29408 net.cpp:100] Creating Layer conv4_3_norm_mbox_loc_flat
I0120 12:24:22.655725 29408 net.cpp:434] conv4_3_norm_mbox_loc_flat <- conv4_3_norm_mbox_loc_perm
I0120 12:24:22.655728 29408 net.cpp:408] conv4_3_norm_mbox_loc_flat -> conv4_3_norm_mbox_loc_flat
I0120 12:24:22.655745 29408 net.cpp:150] Setting up conv4_3_norm_mbox_loc_flat
I0120 12:24:22.655748 29408 net.cpp:157] Top shape: 6 13312 (79872)
I0120 12:24:22.655750 29408 net.cpp:165] Memory required for data: 858525120
I0120 12:24:22.655752 29408 layer_factory.hpp:77] Creating layer conv4_3_norm_mbox_conf
I0120 12:24:22.655758 29408 net.cpp:100] Creating Layer conv4_3_norm_mbox_conf
I0120 12:24:22.655761 29408 net.cpp:434] conv4_3_norm_mbox_conf <- conv4_3_norm_conv4_3_norm_0_split_1
I0120 12:24:22.655766 29408 net.cpp:408] conv4_3_norm_mbox_conf -> conv4_3_norm_mbox_conf
I0120 12:24:22.657330 29408 net.cpp:150] Setting up conv4_3_norm_mbox_conf
I0120 12:24:22.657338 29408 net.cpp:157] Top shape: 6 40 16 52 (199680)
I0120 12:24:22.657341 29408 net.cpp:165] Memory required for data: 859323840
I0120 12:24:22.657344 29408 layer_factory.hpp:77] Creating layer conv4_3_norm_mbox_conf_perm
I0120 12:24:22.657349 29408 net.cpp:100] Creating Layer conv4_3_norm_mbox_conf_perm
I0120 12:24:22.657352 29408 net.cpp:434] conv4_3_norm_mbox_conf_perm <- conv4_3_norm_mbox_conf
I0120 12:24:22.657356 29408 net.cpp:408] conv4_3_norm_mbox_conf_perm -> conv4_3_norm_mbox_conf_perm
I0120 12:24:22.657421 29408 net.cpp:150] Setting up conv4_3_norm_mbox_conf_perm
I0120 12:24:22.657426 29408 net.cpp:157] Top shape: 6 16 52 40 (199680)
I0120 12:24:22.657428 29408 net.cpp:165] Memory required for data: 860122560
I0120 12:24:22.657429 29408 layer_factory.hpp:77] Creating layer conv4_3_norm_mbox_conf_flat
I0120 12:24:22.657434 29408 net.cpp:100] Creating Layer conv4_3_norm_mbox_conf_flat
I0120 12:24:22.657436 29408 net.cpp:434] conv4_3_norm_mbox_conf_flat <- conv4_3_norm_mbox_conf_perm
I0120 12:24:22.657440 29408 net.cpp:408] conv4_3_norm_mbox_conf_flat -> conv4_3_norm_mbox_conf_flat
I0120 12:24:22.657455 29408 net.cpp:150] Setting up conv4_3_norm_mbox_conf_flat
I0120 12:24:22.657459 29408 net.cpp:157] Top shape: 6 33280 (199680)
I0120 12:24:22.657461 29408 net.cpp:165] Memory required for data: 860921280
I0120 12:24:22.657462 29408 layer_factory.hpp:77] Creating layer conv4_3_norm_mbox_priorbox
I0120 12:24:22.657472 29408 net.cpp:100] Creating Layer conv4_3_norm_mbox_priorbox
I0120 12:24:22.657475 29408 net.cpp:434] conv4_3_norm_mbox_priorbox <- conv4_3_norm_conv4_3_norm_0_split_2
I0120 12:24:22.657479 29408 net.cpp:434] conv4_3_norm_mbox_priorbox <- data_data_0_split_1
I0120 12:24:22.657482 29408 net.cpp:408] conv4_3_norm_mbox_priorbox -> conv4_3_norm_mbox_priorbox
I0120 12:24:22.657500 29408 net.cpp:150] Setting up conv4_3_norm_mbox_priorbox
I0120 12:24:22.657503 29408 net.cpp:157] Top shape: 1 2 13312 (26624)
I0120 12:24:22.657505 29408 net.cpp:165] Memory required for data: 861027776
I0120 12:24:22.657508 29408 layer_factory.hpp:77] Creating layer fc7_conv_mbox_loc
I0120 12:24:22.657513 29408 net.cpp:100] Creating Layer fc7_conv_mbox_loc
I0120 12:24:22.657516 29408 net.cpp:434] fc7_conv_mbox_loc <- fc7_conv_relu7_0_split_1
I0120 12:24:22.657521 29408 net.cpp:408] fc7_conv_mbox_loc -> fc7_conv_mbox_loc
I0120 12:24:22.659212 29408 net.cpp:150] Setting up fc7_conv_mbox_loc
I0120 12:24:22.659221 29408 net.cpp:157] Top shape: 6 24 8 26 (29952)
I0120 12:24:22.659224 29408 net.cpp:165] Memory required for data: 861147584
I0120 12:24:22.659227 29408 layer_factory.hpp:77] Creating layer fc7_conv_mbox_loc_perm
I0120 12:24:22.659231 29408 net.cpp:100] Creating Layer fc7_conv_mbox_loc_perm
I0120 12:24:22.659235 29408 net.cpp:434] fc7_conv_mbox_loc_perm <- fc7_conv_mbox_loc
I0120 12:24:22.659240 29408 net.cpp:408] fc7_conv_mbox_loc_perm -> fc7_conv_mbox_loc_perm
I0120 12:24:22.659307 29408 net.cpp:150] Setting up fc7_conv_mbox_loc_perm
I0120 12:24:22.659312 29408 net.cpp:157] Top shape: 6 8 26 24 (29952)
I0120 12:24:22.659313 29408 net.cpp:165] Memory required for data: 861267392
I0120 12:24:22.659315 29408 layer_factory.hpp:77] Creating layer fc7_conv_mbox_loc_flat
I0120 12:24:22.659325 29408 net.cpp:100] Creating Layer fc7_conv_mbox_loc_flat
I0120 12:24:22.659328 29408 net.cpp:434] fc7_conv_mbox_loc_flat <- fc7_conv_mbox_loc_perm
I0120 12:24:22.659332 29408 net.cpp:408] fc7_conv_mbox_loc_flat -> fc7_conv_mbox_loc_flat
I0120 12:24:22.659348 29408 net.cpp:150] Setting up fc7_conv_mbox_loc_flat
I0120 12:24:22.659353 29408 net.cpp:157] Top shape: 6 4992 (29952)
I0120 12:24:22.659354 29408 net.cpp:165] Memory required for data: 861387200
I0120 12:24:22.659356 29408 layer_factory.hpp:77] Creating layer fc7_conv_mbox_conf
I0120 12:24:22.659361 29408 net.cpp:100] Creating Layer fc7_conv_mbox_conf
I0120 12:24:22.659364 29408 net.cpp:434] fc7_conv_mbox_conf <- fc7_conv_relu7_0_split_2
I0120 12:24:22.659368 29408 net.cpp:408] fc7_conv_mbox_conf -> fc7_conv_mbox_conf
I0120 12:24:22.662744 29408 net.cpp:150] Setting up fc7_conv_mbox_conf
I0120 12:24:22.662753 29408 net.cpp:157] Top shape: 6 60 8 26 (74880)
I0120 12:24:22.662755 29408 net.cpp:165] Memory required for data: 861686720
I0120 12:24:22.662760 29408 layer_factory.hpp:77] Creating layer fc7_conv_mbox_conf_perm
I0120 12:24:22.662763 29408 net.cpp:100] Creating Layer fc7_conv_mbox_conf_perm
I0120 12:24:22.662766 29408 net.cpp:434] fc7_conv_mbox_conf_perm <- fc7_conv_mbox_conf
I0120 12:24:22.662773 29408 net.cpp:408] fc7_conv_mbox_conf_perm -> fc7_conv_mbox_conf_perm
I0120 12:24:22.662844 29408 net.cpp:150] Setting up fc7_conv_mbox_conf_perm
I0120 12:24:22.662848 29408 net.cpp:157] Top shape: 6 8 26 60 (74880)
I0120 12:24:22.662852 29408 net.cpp:165] Memory required for data: 861986240
I0120 12:24:22.662853 29408 layer_factory.hpp:77] Creating layer fc7_conv_mbox_conf_flat
I0120 12:24:22.662855 29408 net.cpp:100] Creating Layer fc7_conv_mbox_conf_flat
I0120 12:24:22.662858 29408 net.cpp:434] fc7_conv_mbox_conf_flat <- fc7_conv_mbox_conf_perm
I0120 12:24:22.662863 29408 net.cpp:408] fc7_conv_mbox_conf_flat -> fc7_conv_mbox_conf_flat
I0120 12:24:22.662878 29408 net.cpp:150] Setting up fc7_conv_mbox_conf_flat
I0120 12:24:22.662880 29408 net.cpp:157] Top shape: 6 12480 (74880)
I0120 12:24:22.662881 29408 net.cpp:165] Memory required for data: 862285760
I0120 12:24:22.662883 29408 layer_factory.hpp:77] Creating layer fc7_conv_mbox_priorbox
I0120 12:24:22.662889 29408 net.cpp:100] Creating Layer fc7_conv_mbox_priorbox
I0120 12:24:22.662890 29408 net.cpp:434] fc7_conv_mbox_priorbox <- fc7_conv_relu7_0_split_3
I0120 12:24:22.662894 29408 net.cpp:434] fc7_conv_mbox_priorbox <- data_data_0_split_2
I0120 12:24:22.662897 29408 net.cpp:408] fc7_conv_mbox_priorbox -> fc7_conv_mbox_priorbox
I0120 12:24:22.662914 29408 net.cpp:150] Setting up fc7_conv_mbox_priorbox
I0120 12:24:22.662919 29408 net.cpp:157] Top shape: 1 2 4992 (9984)
I0120 12:24:22.662919 29408 net.cpp:165] Memory required for data: 862325696
I0120 12:24:22.662921 29408 layer_factory.hpp:77] Creating layer conv6_2_mbox_loc
I0120 12:24:22.662926 29408 net.cpp:100] Creating Layer conv6_2_mbox_loc
I0120 12:24:22.662930 29408 net.cpp:434] conv6_2_mbox_loc <- conv6_2_conv6_2_relu_0_split_1
I0120 12:24:22.662933 29408 net.cpp:408] conv6_2_mbox_loc -> conv6_2_mbox_loc
I0120 12:24:22.664254 29408 net.cpp:150] Setting up conv6_2_mbox_loc
I0120 12:24:22.664263 29408 net.cpp:157] Top shape: 6 24 4 13 (7488)
I0120 12:24:22.664264 29408 net.cpp:165] Memory required for data: 862355648
I0120 12:24:22.664268 29408 layer_factory.hpp:77] Creating layer conv6_2_mbox_loc_perm
I0120 12:24:22.664273 29408 net.cpp:100] Creating Layer conv6_2_mbox_loc_perm
I0120 12:24:22.664275 29408 net.cpp:434] conv6_2_mbox_loc_perm <- conv6_2_mbox_loc
I0120 12:24:22.664279 29408 net.cpp:408] conv6_2_mbox_loc_perm -> conv6_2_mbox_loc_perm
I0120 12:24:22.664347 29408 net.cpp:150] Setting up conv6_2_mbox_loc_perm
I0120 12:24:22.664353 29408 net.cpp:157] Top shape: 6 4 13 24 (7488)
I0120 12:24:22.664355 29408 net.cpp:165] Memory required for data: 862385600
I0120 12:24:22.664356 29408 layer_factory.hpp:77] Creating layer conv6_2_mbox_loc_flat
I0120 12:24:22.664360 29408 net.cpp:100] Creating Layer conv6_2_mbox_loc_flat
I0120 12:24:22.664371 29408 net.cpp:434] conv6_2_mbox_loc_flat <- conv6_2_mbox_loc_perm
I0120 12:24:22.664374 29408 net.cpp:408] conv6_2_mbox_loc_flat -> conv6_2_mbox_loc_flat
I0120 12:24:22.664389 29408 net.cpp:150] Setting up conv6_2_mbox_loc_flat
I0120 12:24:22.664392 29408 net.cpp:157] Top shape: 6 1248 (7488)
I0120 12:24:22.664394 29408 net.cpp:165] Memory required for data: 862415552
I0120 12:24:22.664397 29408 layer_factory.hpp:77] Creating layer conv6_2_mbox_conf
I0120 12:24:22.664402 29408 net.cpp:100] Creating Layer conv6_2_mbox_conf
I0120 12:24:22.664404 29408 net.cpp:434] conv6_2_mbox_conf <- conv6_2_conv6_2_relu_0_split_2
I0120 12:24:22.664408 29408 net.cpp:408] conv6_2_mbox_conf -> conv6_2_mbox_conf
I0120 12:24:22.666621 29408 net.cpp:150] Setting up conv6_2_mbox_conf
I0120 12:24:22.666630 29408 net.cpp:157] Top shape: 6 60 4 13 (18720)
I0120 12:24:22.666631 29408 net.cpp:165] Memory required for data: 862490432
I0120 12:24:22.666635 29408 layer_factory.hpp:77] Creating layer conv6_2_mbox_conf_perm
I0120 12:24:22.666641 29408 net.cpp:100] Creating Layer conv6_2_mbox_conf_perm
I0120 12:24:22.666645 29408 net.cpp:434] conv6_2_mbox_conf_perm <- conv6_2_mbox_conf
I0120 12:24:22.666647 29408 net.cpp:408] conv6_2_mbox_conf_perm -> conv6_2_mbox_conf_perm
I0120 12:24:22.666718 29408 net.cpp:150] Setting up conv6_2_mbox_conf_perm
I0120 12:24:22.666721 29408 net.cpp:157] Top shape: 6 4 13 60 (18720)
I0120 12:24:22.666723 29408 net.cpp:165] Memory required for data: 862565312
I0120 12:24:22.666724 29408 layer_factory.hpp:77] Creating layer conv6_2_mbox_conf_flat
I0120 12:24:22.666728 29408 net.cpp:100] Creating Layer conv6_2_mbox_conf_flat
I0120 12:24:22.666731 29408 net.cpp:434] conv6_2_mbox_conf_flat <- conv6_2_mbox_conf_perm
I0120 12:24:22.666733 29408 net.cpp:408] conv6_2_mbox_conf_flat -> conv6_2_mbox_conf_flat
I0120 12:24:22.666749 29408 net.cpp:150] Setting up conv6_2_mbox_conf_flat
I0120 12:24:22.666754 29408 net.cpp:157] Top shape: 6 3120 (18720)
I0120 12:24:22.666754 29408 net.cpp:165] Memory required for data: 862640192
I0120 12:24:22.666756 29408 layer_factory.hpp:77] Creating layer conv6_2_mbox_priorbox
I0120 12:24:22.666760 29408 net.cpp:100] Creating Layer conv6_2_mbox_priorbox
I0120 12:24:22.666764 29408 net.cpp:434] conv6_2_mbox_priorbox <- conv6_2_conv6_2_relu_0_split_3
I0120 12:24:22.666766 29408 net.cpp:434] conv6_2_mbox_priorbox <- data_data_0_split_3
I0120 12:24:22.666769 29408 net.cpp:408] conv6_2_mbox_priorbox -> conv6_2_mbox_priorbox
I0120 12:24:22.666786 29408 net.cpp:150] Setting up conv6_2_mbox_priorbox
I0120 12:24:22.666790 29408 net.cpp:157] Top shape: 1 2 1248 (2496)
I0120 12:24:22.666791 29408 net.cpp:165] Memory required for data: 862650176
I0120 12:24:22.666793 29408 layer_factory.hpp:77] Creating layer conv7_2_mbox_loc
I0120 12:24:22.666798 29408 net.cpp:100] Creating Layer conv7_2_mbox_loc
I0120 12:24:22.666801 29408 net.cpp:434] conv7_2_mbox_loc <- conv7_2_conv7_2_relu_0_split_1
I0120 12:24:22.666805 29408 net.cpp:408] conv7_2_mbox_loc -> conv7_2_mbox_loc
I0120 12:24:22.667940 29408 net.cpp:150] Setting up conv7_2_mbox_loc
I0120 12:24:22.667948 29408 net.cpp:157] Top shape: 6 24 2 7 (2016)
I0120 12:24:22.667950 29408 net.cpp:165] Memory required for data: 862658240
I0120 12:24:22.667953 29408 layer_factory.hpp:77] Creating layer conv7_2_mbox_loc_perm
I0120 12:24:22.667958 29408 net.cpp:100] Creating Layer conv7_2_mbox_loc_perm
I0120 12:24:22.667961 29408 net.cpp:434] conv7_2_mbox_loc_perm <- conv7_2_mbox_loc
I0120 12:24:22.667965 29408 net.cpp:408] conv7_2_mbox_loc_perm -> conv7_2_mbox_loc_perm
I0120 12:24:22.668033 29408 net.cpp:150] Setting up conv7_2_mbox_loc_perm
I0120 12:24:22.668037 29408 net.cpp:157] Top shape: 6 2 7 24 (2016)
I0120 12:24:22.668040 29408 net.cpp:165] Memory required for data: 862666304
I0120 12:24:22.668041 29408 layer_factory.hpp:77] Creating layer conv7_2_mbox_loc_flat
I0120 12:24:22.668045 29408 net.cpp:100] Creating Layer conv7_2_mbox_loc_flat
I0120 12:24:22.668047 29408 net.cpp:434] conv7_2_mbox_loc_flat <- conv7_2_mbox_loc_perm
I0120 12:24:22.668051 29408 net.cpp:408] conv7_2_mbox_loc_flat -> conv7_2_mbox_loc_flat
I0120 12:24:22.668074 29408 net.cpp:150] Setting up conv7_2_mbox_loc_flat
I0120 12:24:22.668078 29408 net.cpp:157] Top shape: 6 336 (2016)
I0120 12:24:22.668079 29408 net.cpp:165] Memory required for data: 862674368
I0120 12:24:22.668081 29408 layer_factory.hpp:77] Creating layer conv7_2_mbox_conf
I0120 12:24:22.668087 29408 net.cpp:100] Creating Layer conv7_2_mbox_conf
I0120 12:24:22.668089 29408 net.cpp:434] conv7_2_mbox_conf <- conv7_2_conv7_2_relu_0_split_2
I0120 12:24:22.668095 29408 net.cpp:408] conv7_2_mbox_conf -> conv7_2_mbox_conf
I0120 12:24:22.669493 29408 net.cpp:150] Setting up conv7_2_mbox_conf
I0120 12:24:22.669500 29408 net.cpp:157] Top shape: 6 60 2 7 (5040)
I0120 12:24:22.669503 29408 net.cpp:165] Memory required for data: 862694528
I0120 12:24:22.669507 29408 layer_factory.hpp:77] Creating layer conv7_2_mbox_conf_perm
I0120 12:24:22.669512 29408 net.cpp:100] Creating Layer conv7_2_mbox_conf_perm
I0120 12:24:22.669515 29408 net.cpp:434] conv7_2_mbox_conf_perm <- conv7_2_mbox_conf
I0120 12:24:22.669519 29408 net.cpp:408] conv7_2_mbox_conf_perm -> conv7_2_mbox_conf_perm
I0120 12:24:22.669587 29408 net.cpp:150] Setting up conv7_2_mbox_conf_perm
I0120 12:24:22.669591 29408 net.cpp:157] Top shape: 6 2 7 60 (5040)
I0120 12:24:22.669594 29408 net.cpp:165] Memory required for data: 862714688
I0120 12:24:22.669595 29408 layer_factory.hpp:77] Creating layer conv7_2_mbox_conf_flat
I0120 12:24:22.669598 29408 net.cpp:100] Creating Layer conv7_2_mbox_conf_flat
I0120 12:24:22.669601 29408 net.cpp:434] conv7_2_mbox_conf_flat <- conv7_2_mbox_conf_perm
I0120 12:24:22.669603 29408 net.cpp:408] conv7_2_mbox_conf_flat -> conv7_2_mbox_conf_flat
I0120 12:24:22.669620 29408 net.cpp:150] Setting up conv7_2_mbox_conf_flat
I0120 12:24:22.669622 29408 net.cpp:157] Top shape: 6 840 (5040)
I0120 12:24:22.669625 29408 net.cpp:165] Memory required for data: 862734848
I0120 12:24:22.669625 29408 layer_factory.hpp:77] Creating layer conv7_2_mbox_priorbox
I0120 12:24:22.669631 29408 net.cpp:100] Creating Layer conv7_2_mbox_priorbox
I0120 12:24:22.669632 29408 net.cpp:434] conv7_2_mbox_priorbox <- conv7_2_conv7_2_relu_0_split_3
I0120 12:24:22.669636 29408 net.cpp:434] conv7_2_mbox_priorbox <- data_data_0_split_4
I0120 12:24:22.669638 29408 net.cpp:408] conv7_2_mbox_priorbox -> conv7_2_mbox_priorbox
I0120 12:24:22.669654 29408 net.cpp:150] Setting up conv7_2_mbox_priorbox
I0120 12:24:22.669658 29408 net.cpp:157] Top shape: 1 2 336 (672)
I0120 12:24:22.669661 29408 net.cpp:165] Memory required for data: 862737536
I0120 12:24:22.669661 29408 layer_factory.hpp:77] Creating layer conv8_2_mbox_loc
I0120 12:24:22.669667 29408 net.cpp:100] Creating Layer conv8_2_mbox_loc
I0120 12:24:22.669669 29408 net.cpp:434] conv8_2_mbox_loc <- conv8_2_conv8_2_relu_0_split_1
I0120 12:24:22.669673 29408 net.cpp:408] conv8_2_mbox_loc -> conv8_2_mbox_loc
I0120 12:24:22.670753 29408 net.cpp:150] Setting up conv8_2_mbox_loc
I0120 12:24:22.670760 29408 net.cpp:157] Top shape: 6 16 1 4 (384)
I0120 12:24:22.670763 29408 net.cpp:165] Memory required for data: 862739072
I0120 12:24:22.670766 29408 layer_factory.hpp:77] Creating layer conv8_2_mbox_loc_perm
I0120 12:24:22.670771 29408 net.cpp:100] Creating Layer conv8_2_mbox_loc_perm
I0120 12:24:22.670773 29408 net.cpp:434] conv8_2_mbox_loc_perm <- conv8_2_mbox_loc
I0120 12:24:22.670778 29408 net.cpp:408] conv8_2_mbox_loc_perm -> conv8_2_mbox_loc_perm
I0120 12:24:22.670846 29408 net.cpp:150] Setting up conv8_2_mbox_loc_perm
I0120 12:24:22.670850 29408 net.cpp:157] Top shape: 6 1 4 16 (384)
I0120 12:24:22.670851 29408 net.cpp:165] Memory required for data: 862740608
I0120 12:24:22.670853 29408 layer_factory.hpp:77] Creating layer conv8_2_mbox_loc_flat
I0120 12:24:22.670856 29408 net.cpp:100] Creating Layer conv8_2_mbox_loc_flat
I0120 12:24:22.670858 29408 net.cpp:434] conv8_2_mbox_loc_flat <- conv8_2_mbox_loc_perm
I0120 12:24:22.670862 29408 net.cpp:408] conv8_2_mbox_loc_flat -> conv8_2_mbox_loc_flat
I0120 12:24:22.670877 29408 net.cpp:150] Setting up conv8_2_mbox_loc_flat
I0120 12:24:22.670887 29408 net.cpp:157] Top shape: 6 64 (384)
I0120 12:24:22.670889 29408 net.cpp:165] Memory required for data: 862742144
I0120 12:24:22.670892 29408 layer_factory.hpp:77] Creating layer conv8_2_mbox_conf
I0120 12:24:22.670897 29408 net.cpp:100] Creating Layer conv8_2_mbox_conf
I0120 12:24:22.670898 29408 net.cpp:434] conv8_2_mbox_conf <- conv8_2_conv8_2_relu_0_split_2
I0120 12:24:22.670902 29408 net.cpp:408] conv8_2_mbox_conf -> conv8_2_mbox_conf
I0120 12:24:22.672157 29408 net.cpp:150] Setting up conv8_2_mbox_conf
I0120 12:24:22.672164 29408 net.cpp:157] Top shape: 6 40 1 4 (960)
I0120 12:24:22.672165 29408 net.cpp:165] Memory required for data: 862745984
I0120 12:24:22.672169 29408 layer_factory.hpp:77] Creating layer conv8_2_mbox_conf_perm
I0120 12:24:22.672173 29408 net.cpp:100] Creating Layer conv8_2_mbox_conf_perm
I0120 12:24:22.672176 29408 net.cpp:434] conv8_2_mbox_conf_perm <- conv8_2_mbox_conf
I0120 12:24:22.672179 29408 net.cpp:408] conv8_2_mbox_conf_perm -> conv8_2_mbox_conf_perm
I0120 12:24:22.672252 29408 net.cpp:150] Setting up conv8_2_mbox_conf_perm
I0120 12:24:22.672256 29408 net.cpp:157] Top shape: 6 1 4 40 (960)
I0120 12:24:22.672258 29408 net.cpp:165] Memory required for data: 862749824
I0120 12:24:22.672260 29408 layer_factory.hpp:77] Creating layer conv8_2_mbox_conf_flat
I0120 12:24:22.672262 29408 net.cpp:100] Creating Layer conv8_2_mbox_conf_flat
I0120 12:24:22.672264 29408 net.cpp:434] conv8_2_mbox_conf_flat <- conv8_2_mbox_conf_perm
I0120 12:24:22.672268 29408 net.cpp:408] conv8_2_mbox_conf_flat -> conv8_2_mbox_conf_flat
I0120 12:24:22.672283 29408 net.cpp:150] Setting up conv8_2_mbox_conf_flat
I0120 12:24:22.672286 29408 net.cpp:157] Top shape: 6 160 (960)
I0120 12:24:22.672287 29408 net.cpp:165] Memory required for data: 862753664
I0120 12:24:22.672289 29408 layer_factory.hpp:77] Creating layer conv8_2_mbox_priorbox
I0120 12:24:22.672293 29408 net.cpp:100] Creating Layer conv8_2_mbox_priorbox
I0120 12:24:22.672296 29408 net.cpp:434] conv8_2_mbox_priorbox <- conv8_2_conv8_2_relu_0_split_3
I0120 12:24:22.672297 29408 net.cpp:434] conv8_2_mbox_priorbox <- data_data_0_split_5
I0120 12:24:22.672303 29408 net.cpp:408] conv8_2_mbox_priorbox -> conv8_2_mbox_priorbox
I0120 12:24:22.672322 29408 net.cpp:150] Setting up conv8_2_mbox_priorbox
I0120 12:24:22.672324 29408 net.cpp:157] Top shape: 1 2 64 (128)
I0120 12:24:22.672325 29408 net.cpp:165] Memory required for data: 862754176
I0120 12:24:22.672327 29408 layer_factory.hpp:77] Creating layer pool6_mbox_loc
I0120 12:24:22.672333 29408 net.cpp:100] Creating Layer pool6_mbox_loc
I0120 12:24:22.672334 29408 net.cpp:434] pool6_mbox_loc <- pool6_pool6_0_split_0
I0120 12:24:22.672338 29408 net.cpp:408] pool6_mbox_loc -> pool6_mbox_loc
I0120 12:24:22.673423 29408 net.cpp:150] Setting up pool6_mbox_loc
I0120 12:24:22.673429 29408 net.cpp:157] Top shape: 6 16 1 1 (96)
I0120 12:24:22.673430 29408 net.cpp:165] Memory required for data: 862754560
I0120 12:24:22.673440 29408 layer_factory.hpp:77] Creating layer pool6_mbox_loc_perm
I0120 12:24:22.673445 29408 net.cpp:100] Creating Layer pool6_mbox_loc_perm
I0120 12:24:22.673447 29408 net.cpp:434] pool6_mbox_loc_perm <- pool6_mbox_loc
I0120 12:24:22.673451 29408 net.cpp:408] pool6_mbox_loc_perm -> pool6_mbox_loc_perm
I0120 12:24:22.673521 29408 net.cpp:150] Setting up pool6_mbox_loc_perm
I0120 12:24:22.673524 29408 net.cpp:157] Top shape: 6 1 1 16 (96)
I0120 12:24:22.673527 29408 net.cpp:165] Memory required for data: 862754944
I0120 12:24:22.673527 29408 layer_factory.hpp:77] Creating layer pool6_mbox_loc_flat
I0120 12:24:22.673530 29408 net.cpp:100] Creating Layer pool6_mbox_loc_flat
I0120 12:24:22.673533 29408 net.cpp:434] pool6_mbox_loc_flat <- pool6_mbox_loc_perm
I0120 12:24:22.673537 29408 net.cpp:408] pool6_mbox_loc_flat -> pool6_mbox_loc_flat
I0120 12:24:22.673552 29408 net.cpp:150] Setting up pool6_mbox_loc_flat
I0120 12:24:22.673554 29408 net.cpp:157] Top shape: 6 16 (96)
I0120 12:24:22.673555 29408 net.cpp:165] Memory required for data: 862755328
I0120 12:24:22.673557 29408 layer_factory.hpp:77] Creating layer pool6_mbox_conf
I0120 12:24:22.673570 29408 net.cpp:100] Creating Layer pool6_mbox_conf
I0120 12:24:22.673573 29408 net.cpp:434] pool6_mbox_conf <- pool6_pool6_0_split_1
I0120 12:24:22.673578 29408 net.cpp:408] pool6_mbox_conf -> pool6_mbox_conf
I0120 12:24:22.675551 29408 net.cpp:150] Setting up pool6_mbox_conf
I0120 12:24:22.675562 29408 net.cpp:157] Top shape: 6 40 1 1 (240)
I0120 12:24:22.675565 29408 net.cpp:165] Memory required for data: 862756288
I0120 12:24:22.675570 29408 layer_factory.hpp:77] Creating layer pool6_mbox_conf_perm
I0120 12:24:22.675575 29408 net.cpp:100] Creating Layer pool6_mbox_conf_perm
I0120 12:24:22.675578 29408 net.cpp:434] pool6_mbox_conf_perm <- pool6_mbox_conf
I0120 12:24:22.675582 29408 net.cpp:408] pool6_mbox_conf_perm -> pool6_mbox_conf_perm
I0120 12:24:22.675655 29408 net.cpp:150] Setting up pool6_mbox_conf_perm
I0120 12:24:22.675658 29408 net.cpp:157] Top shape: 6 1 1 40 (240)
I0120 12:24:22.675660 29408 net.cpp:165] Memory required for data: 862757248
I0120 12:24:22.675662 29408 layer_factory.hpp:77] Creating layer pool6_mbox_conf_flat
I0120 12:24:22.675665 29408 net.cpp:100] Creating Layer pool6_mbox_conf_flat
I0120 12:24:22.675668 29408 net.cpp:434] pool6_mbox_conf_flat <- pool6_mbox_conf_perm
I0120 12:24:22.675671 29408 net.cpp:408] pool6_mbox_conf_flat -> pool6_mbox_conf_flat
I0120 12:24:22.675688 29408 net.cpp:150] Setting up pool6_mbox_conf_flat
I0120 12:24:22.675691 29408 net.cpp:157] Top shape: 6 40 (240)
I0120 12:24:22.675693 29408 net.cpp:165] Memory required for data: 862758208
I0120 12:24:22.675694 29408 layer_factory.hpp:77] Creating layer pool6_mbox_priorbox
I0120 12:24:22.675698 29408 net.cpp:100] Creating Layer pool6_mbox_priorbox
I0120 12:24:22.675700 29408 net.cpp:434] pool6_mbox_priorbox <- pool6_pool6_0_split_2
I0120 12:24:22.675704 29408 net.cpp:434] pool6_mbox_priorbox <- data_data_0_split_6
I0120 12:24:22.675707 29408 net.cpp:408] pool6_mbox_priorbox -> pool6_mbox_priorbox
I0120 12:24:22.675725 29408 net.cpp:150] Setting up pool6_mbox_priorbox
I0120 12:24:22.675729 29408 net.cpp:157] Top shape: 1 2 16 (32)
I0120 12:24:22.675731 29408 net.cpp:165] Memory required for data: 862758336
I0120 12:24:22.675734 29408 layer_factory.hpp:77] Creating layer mbox_loc
I0120 12:24:22.675736 29408 net.cpp:100] Creating Layer mbox_loc
I0120 12:24:22.675740 29408 net.cpp:434] mbox_loc <- conv4_3_norm_mbox_loc_flat
I0120 12:24:22.675743 29408 net.cpp:434] mbox_loc <- fc7_conv_mbox_loc_flat
I0120 12:24:22.675746 29408 net.cpp:434] mbox_loc <- conv6_2_mbox_loc_flat
I0120 12:24:22.675750 29408 net.cpp:434] mbox_loc <- conv7_2_mbox_loc_flat
I0120 12:24:22.675752 29408 net.cpp:434] mbox_loc <- conv8_2_mbox_loc_flat
I0120 12:24:22.675755 29408 net.cpp:434] mbox_loc <- pool6_mbox_loc_flat
I0120 12:24:22.675760 29408 net.cpp:408] mbox_loc -> mbox_loc
I0120 12:24:22.675779 29408 net.cpp:150] Setting up mbox_loc
I0120 12:24:22.675783 29408 net.cpp:157] Top shape: 6 19968 (119808)
I0120 12:24:22.675784 29408 net.cpp:165] Memory required for data: 863237568
I0120 12:24:22.675786 29408 layer_factory.hpp:77] Creating layer mbox_conf
I0120 12:24:22.675788 29408 net.cpp:100] Creating Layer mbox_conf
I0120 12:24:22.675792 29408 net.cpp:434] mbox_conf <- conv4_3_norm_mbox_conf_flat
I0120 12:24:22.675796 29408 net.cpp:434] mbox_conf <- fc7_conv_mbox_conf_flat
I0120 12:24:22.675798 29408 net.cpp:434] mbox_conf <- conv6_2_mbox_conf_flat
I0120 12:24:22.675801 29408 net.cpp:434] mbox_conf <- conv7_2_mbox_conf_flat
I0120 12:24:22.675803 29408 net.cpp:434] mbox_conf <- conv8_2_mbox_conf_flat
I0120 12:24:22.675806 29408 net.cpp:434] mbox_conf <- pool6_mbox_conf_flat
I0120 12:24:22.675808 29408 net.cpp:408] mbox_conf -> mbox_conf
I0120 12:24:22.675823 29408 net.cpp:150] Setting up mbox_conf
I0120 12:24:22.675827 29408 net.cpp:157] Top shape: 6 49920 (299520)
I0120 12:24:22.675829 29408 net.cpp:165] Memory required for data: 864435648
I0120 12:24:22.675830 29408 layer_factory.hpp:77] Creating layer mbox_priorbox
I0120 12:24:22.675833 29408 net.cpp:100] Creating Layer mbox_priorbox
I0120 12:24:22.675844 29408 net.cpp:434] mbox_priorbox <- conv4_3_norm_mbox_priorbox
I0120 12:24:22.675846 29408 net.cpp:434] mbox_priorbox <- fc7_conv_mbox_priorbox
I0120 12:24:22.675850 29408 net.cpp:434] mbox_priorbox <- conv6_2_mbox_priorbox
I0120 12:24:22.675853 29408 net.cpp:434] mbox_priorbox <- conv7_2_mbox_priorbox
I0120 12:24:22.675855 29408 net.cpp:434] mbox_priorbox <- conv8_2_mbox_priorbox
I0120 12:24:22.675858 29408 net.cpp:434] mbox_priorbox <- pool6_mbox_priorbox
I0120 12:24:22.675860 29408 net.cpp:408] mbox_priorbox -> mbox_priorbox
I0120 12:24:22.675878 29408 net.cpp:150] Setting up mbox_priorbox
I0120 12:24:22.675880 29408 net.cpp:157] Top shape: 1 2 19968 (39936)
I0120 12:24:22.675882 29408 net.cpp:165] Memory required for data: 864595392
I0120 12:24:22.675884 29408 layer_factory.hpp:77] Creating layer mbox_loss
I0120 12:24:22.675892 29408 net.cpp:100] Creating Layer mbox_loss
I0120 12:24:22.675895 29408 net.cpp:434] mbox_loss <- mbox_loc
I0120 12:24:22.675897 29408 net.cpp:434] mbox_loss <- mbox_conf
I0120 12:24:22.675899 29408 net.cpp:434] mbox_loss <- mbox_priorbox
…
  type: "AnnotatedData"
  top: "data"
  top: "label"
  include {
    phase: TEST
  }
  transform_param {
    mean_value: 104
    mean_value: 117
    mean_value: 123
    resize_param {
      prob: 1
      resize_mode: WARP
      height: 125
      width: 414
      interp_mode: LINEAR
    }
  }
  data_param {
    source: "/home/chenqi-didi/data/KITTI/lmdb/KITTI_test_lmdb"
    batch_size: 8
    backend: LMDB
  }
  annotated_data_param {
    batch_sampler {
    }
    label_map_file: "/media/jinfagang-workspace/Jinfagang-Use/SSD/KITTI/data/labelmap_kitti.prototxt"
  }
}
layer {
  name: "conv1_1"
  type: "Convolution"
  bottom: "data"
  top: "conv1_1"
  param {
    lr_mult: 1
    decay_mult: 1
  }
  param {
    lr_mult: 2
    decay_mult: 0
  }
  convolution_param {
    num_output: 64
    pad: 1
    kernel_size: 3
    weight_filler {
      type: "xavier"
    }
    bias_filler {
      type: "constant"
      value: 0
    }
  }
}
layer {
  name: "relu1_1"
  type: "ReLU"
  bottom: "conv1_1"
  top: "conv1_1"
}
layer {
  name: "conv1_2"
  type: "Convolution"
  bottom: "conv1_1"
  top: "conv1_2"
  param {
    lr_mult: 1
    decay_mult: 1
  }
  param {
    lr_mult: 2
    decay_mult: 0
  }
  convolution_param {
    num_output: 64
    pad: 1
    kernel_size: 3
    weight_filler {
      type: "xavier"
    }
    bias_filler {
      type: "constant"
      value: 0
    }
  }
}
layer {
  name: "relu1_2"
  type: "ReLU"
  bottom: "conv1_2"
  top: "conv1_2"
}
layer {
  name: "pool1"
  type: "Pooling"
  bottom: "conv1_2"
  top: "pool1"
  pooling_param {
    pool: MAX
    kernel_size: 2
    stride: 2
  }
}
layer {
  name: "conv2_1"
  type: "Convolution"
  bottom: "pool1"
  top: "conv2_1"
  param {
    lr_mult: 1
    decay_mult: 1
  }
  param {
    lr_mult: 2
    decay_mult: 0
  }
  convolution_param {
    num_output: 128
    pad: 1
    kernel_size: 3
    weight_filler {
      type: "xavier"
    }
    bias_filler {
      type: "constant"
      value: 0
    }
  }
}
layer {
  name: "relu2_1"
  type: "ReLU"
  bottom: "conv2_1"
  top: "conv2_1"
}
layer {
  name: "conv2_2"
  type: "Convolution"
  bottom: "conv2_1"
  top: "conv2_2"
  param {
    lr_mult: 1
    decay_mult: 1
  }
  param {
    lr_mult: 2
    decay_mult: 0
  }
  convolution_param {
    num_output: 128
    pad: 1
    kernel_size: 3
    weight_filler {
      type: "xavier"
    }
    bias_filler {
      type: "constant"
      value: 0
    }
  }
}
layer {
  name: "relu2_2"
  type: "ReLU"
  bottom: "conv2_2"
  top: "conv2_2"
}
layer {
  name: "pool2"
  type: "Pooling"
  bottom: "conv2_2"
  top: "pool2"
  pooling_param {
    pool: MAX
    kernel_size: 2
    stride: 2
  }
}
layer {
  name: "conv3_1"
  type: "Convolution"
  bottom: "pool2"
  top: "conv3_1"
  param {
    lr_mult: 1
    decay_mult: 1
  }
  param {
    lr_mult: 2
    decay_mult: 0
  }
  convolution_param {
    num_output: 256
    pad: 1
    kernel_size: 3
    weight_filler {
      type: "xavier"
    }
    bias_filler {
      type: "constant"
      value: 0
    }
  }
}
layer {
  name: "relu3_1"
  type: "ReLU"
  bottom: "conv3_1"
  top: "conv3_1"
}
layer {
  name: "conv3_2"
  type: "Convolution"
  bottom: "conv3_1"
  top: "conv3_2"
  param {
    lr_mult: 1
    decay_mult: 1
  }
  param {
    lr_mult: 2
    decay_mult: 0
  }
  convolution_param {
    num_output: 256
    pad: 1
    kernel_size: 3
    weight_filler {
      type: "xavier"
    }
    bias_filler {
      type: "constant"
      value: 0
    }
  }
}
layer {
  name: "relu3_2"
  type: "ReLU"
  bottom: "conv3_2"
  top: "conv3_2"
}
layer {
  name: "conv3_3"
  type: "Convolution"
  bottom: "conv3_2"
  top: "conv3_3"
  param {
    lr_mult: 1
    decay_mult: 1
  }
  param {
    lr_mult: 2
    decay_mult: 0
  }
  convolution_param {
    num_output: 256
    pad: 1
    kernel_size: 3
    weight_filler {
      type: "xavier"
    }
    bias_filler {
      type: "constant"
      value: 0
    }
  }
}
layer {
  name: "relu3_3"
  type: "ReLU"
  bottom: "conv3_3"
  top: "conv3_3"
}
layer {
  name: "pool3"
  type: "Pooling"
  bottom: "conv3_3"
  top: "pool3"
  pooling_param {
    pool: MAX
    kernel_size: 2
    stride: 2
  }
}
layer {
  name: "conv4_1"
  type: "Convolution"
  bottom: "pool3"
  top: "conv4_1"
  param {
    lr_mult: 1
    decay_mult: 1
  }
  param {
    lr_mult: 2
    decay_mult: 0
  }
  convolution_param {
    num_output: 512
    pad: 1
    kernel_size: 3
    weight_filler {
      type: "xavier"
    }
    bias_filler {
      type: "constant"
      value: 0
    }
  }
}
layer {
  name: "relu4_1"
  type: "ReLU"
  bottom: "conv4_1"
  top: "conv4_1"
}
layer {
  name: "conv4_2"
  type: "Convolution"
  bottom: "conv4_1"
  top: "conv4_2"
  param {
    lr_mult: 1
    decay_mult: 1
  }
  param {
    lr_mult: 2
    decay_mult: 0
  }
  convolution_param {
    num_output: 512
    pad: 1
    kernel_size: 3
    weight_filler {
      type: "xavier"
    }
    bias_filler {
      type: "constant"
      value: 0
    }
  }
}
layer {
  name: "relu4_2"
  type: "ReLU"
  bottom: "conv4_2"
  top: "conv4_2"
}
layer {
  name: "conv4_3"
  type: "Convolution"
  bottom: "conv4_2"
  top: "conv4_3"
  param {
    lr_mult: 1
    decay_mult: 1
  }
  param {
    lr_mult: 2
    decay_mult: 0
  }
  convolution_param {
    num_output: 512
    pad: 1
    kernel_size: 3
    weight_filler {
      type: "xavier"
    }
    bias_filler {
      type: "constant"
      value: 0
    }
  }
}
layer {
  name: "relu4_3"
  type: "ReLU"
  bottom: "conv4_3"
  top: "conv4_3"
}
layer {
  name: "pool4"
  type: "Pooling"
  bottom: "conv4_3"
  top: "pool4"
  pooling_param {
    pool: MAX
    kernel_size: 2
    stride: 2
  }
}
layer {
  name: "conv5_1"
  type: "Convolution"
  bottom: "pool4"
  top: "conv5_1"
  param {
    lr_mult: 1
    decay_mult: 1
  }
  param {
    lr_mult: 2
    decay_mult: 0
  }
  convolution_param {
    num_output: 512
    pad: 1
    kernel_size: 3
    weight_filler {
      type: "xavier"
    }
    bias_filler {
      type: "constant"
      value: 0
    }
    dilation: 1
  }
}
layer {
  name: "relu5_1"
  type: "ReLU"
  bottom: "conv5_1"
  top: "conv5_1"
}
layer {
  name: "conv5_2"
  type: "Convolution"
  bottom: "conv5_1"
  top: "conv5_2"
  param {
    lr_mult: 1
    decay_mult: 1
  }
  param {
    lr_mult: 2
    decay_mult: 0
  }
  convolution_param {
    num_output: 512
    pad: 1
    kernel_size: 3
    weight_filler {
      type: "xavier"
    }
    bias_filler {
      type: "constant"
      value: 0
    }
    dilation: 1
  }
}
layer {
  name: "relu5_2"
  type: "ReLU"
  bottom: "conv5_2"
  top: "conv5_2"
}
layer {
  name: "conv5_3"
  type: "Convolution"
  bottom: "conv5_2"
  top: "conv5_3"
  param {
    lr_mult: 1
    decay_mult: 1
  }
  param {
    lr_mult: 2
    decay_mult: 0
  }
  convolution_param {
    num_output: 512
    pad: 1
    kernel_size: 3
    weight_filler {
      type: "xavier"
    }
    bias_filler {
      type: "constant"
      value: 0
    }
    dilation: 1
  }
}
layer {
  name: "relu5_3"
  type: "ReLU"
  bottom: "conv5_3"
  top: "conv5_3"
}
layer {
  name: "pool5"
  type: "Pooling"
  bottom: "conv5_3"
  top: "pool5"
  pooling_param {
    pool: MAX
    kernel_size: 3
    stride: 1
    pad: 1
  }
}
layer {
  name: "fc6_conv"
  type: "Convolution"
  bottom: "pool5"
  top: "fc6_conv"
  param {
    lr_mult: 1
    decay_mult: 1
  }
  param {
    lr_mult: 2
    decay_mult: 0
  }
  convolution_param {
    num_output: 1024
    pad: 6
    kernel_size: 3
    weight_filler {
      type: "xavier"
    }
    bias_filler {
      type: "constant"
      value: 0
    }
    dilation: 6
  }
}
layer {
  name: "relu6"
  type: "ReLU"
  bottom: "fc6_conv"
  top: "fc6_conv"
}
layer {
  name: "fc7_conv"
  type: "Convolution"
  bottom: "fc6_conv"
  top: "fc7_conv"
  param {
    lr_mult: 1
    decay_mult: 1
  }
  param {
    lr_mult: 2
    decay_mult: 0
  }
  convolution_param {
    num_output: 1024
    kernel_size: 1
    weight_filler {
      type: "xavier"
    }
    bias_filler {
      type: "constant"
      value: 0
    }
  }
}
layer {
  name: "relu7"
  type: "ReLU"
  bottom: "fc7_conv"
  top: "fc7_conv"
}
layer {
  name: "conv6_1"
  type: "Convolution"
  bottom: "fc7_conv"
  top: "conv6_1"
  param {
    lr_mult: 1
    decay_mult: 1
  }
  param {
    lr_mult: 2
    decay_mult: 0
  }
  convolution_param {
    num_output: 256
    pad: 0
    kernel_size: 1
    stride: 1
    weight_filler {
      type: "xavier"
    }
    bias_filler {
      type: "constant"
      value: 0
    }
  }
}
layer {
  name: "conv6_1_relu"
  type: "ReLU"
  bottom: "conv6_1"
  top: "conv6_1"
}
layer {
  name: "conv6_2"
  type: "Convolution"
  bottom: "conv6_1"
  top: "conv6_2"
  param {
    lr_mult: 1
    decay_mult: 1
  }
  param {
    lr_mult: 2
    decay_mult: 0
  }
  convolution_param {
    num_output: 512
    pad: 1
    kernel_size: 3
    stride: 2
    weight_filler {
      type: "xavier"
    }
    bias_filler {
      type: "constant"
      value: 0
    }
  }
}
layer {
  name: "conv6_2_relu"
  type: "ReLU"
  bottom: "conv6_2"
  top: "conv6_2"
}
layer {
  name: "conv7_1"
  type: "Convolution"
  bottom: "conv6_2"
  top: "conv7_1"
  param {
    lr_mult: 1
    decay_mult: 1
  }
  param {
    lr_mult: 2
    decay_mult: 0
  }
  convolution_param {
    num_output: 128
    pad: 0
    kernel_size: 1
    stride: 1
    weight_filler {
      type: "xavier"
    }
    bias_filler {
      type: "constant"
      value: 0
    }
  }
}
layer {
  name: "conv7_1_relu"
  type: "ReLU"
  bottom: "conv7_1"
  top: "conv7_1"
}
layer {
  name: "conv7_2"
  type: "Convolution"
  bottom: "conv7_1"
  top: "conv7_2"
  param {
    lr_mult: 1
    decay_mult: 1
  }
  param {
    lr_mult: 2
    decay_mult: 0
  }
  convolution_param {
    num_output: 256
    pad: 1
    kernel_size: 3
    stride: 2
    weight_filler {
      type: "xavier"
    }
    bias_filler {
      type: "constant"
      value: 0
    }
  }
}
layer {
  name: "conv7_2_relu"
  type: "ReLU"
  bottom: "conv7_2"
  top: "conv7_2"
}
layer {
  name: "conv8_1"
  type: "Convolution"
  bottom: "conv7_2"
  top: "conv8_1"
  param {
    lr_mult: 1
    decay_mult: 1
  }
  param {
    lr_mult: 2
    decay_mult: 0
  }
  convolution_param {
    num_output: 128
    pad: 0
    kernel_size: 1
    stride: 1
    weight_filler {
      type: "xavier"
    }
    bias_filler {
      type: "constant"
      value: 0
    }
  }
}
layer {
  name: "conv8_1_relu"
  type: "ReLU"
  bottom: "conv8_1"
  top: "conv8_1"
}
layer {
  name: "conv8_2"
  type: "Convolution"
  bottom: "conv8_1"
  top: "conv8_2"
  param {
    lr_mult: 1
    decay_mult: 1
  }
  param {
    lr_mult: 2
    decay_mult: 0
  }
  convolution_param {
    num_output: 256
    pad: 1
    kernel_size: 3
    stride: 2
    weight_filler {
      type: "xavier"
    }
    bias_filler {
      type: "constant"
      value: 0
    }
  }
}
layer {
  name: "conv8_2_relu"
  type: "ReLU"
  bottom: "conv8_2"
  top: "conv8_2"
}
layer {
  name: "pool6"
  type: "Pooling"
  bottom: "conv8_2"
  top: "pool6"
  pooling_param {
    pool: AVE
    global_pooling: true
  }
}
layer {
  name: "conv4_3_norm"
  type: "Normalize"
  bottom: "conv4_3"
  top: "conv4_3_norm"
  norm_param {
    across_spatial: false
    scale_filler {
      type: "constant"
      value: 20
    }
    channel_shared: false
  }
}
layer {
  name: "conv4_3_norm_mbox_loc"
  type: "Convolution"
  bottom: "conv4_3_norm"
  top: "conv4_3_norm_mbox_loc"
  param {
    lr_mult: 1
    decay_mult: 1
  }
  param {
    lr_mult: 2
    decay_mult: 0
  }
  convolution_param {
    num_output: 16
    pad: 1
    kernel_size: 3
    stride: 1
    weight_filler {
      type: "xavier"
    }
    bias_filler {
      type: "constant"
      value: 0
    }
  }
}
layer {
  name: "conv4_3_norm_mbox_loc_perm"
  type: "Permute"
  bottom: "conv4_3_norm_mbox_loc"
  top: "conv4_3_norm_mbox_loc_perm"
  permute_param {
    order: 0
    order: 2
    order: 3
    order: 1
  }
}
layer {
  name: "conv4_3_norm_mbox_loc_flat"
  type: "Flatten"
  bottom: "conv4_3_norm_mbox_loc_perm"
  top: "conv4_3_norm_mbox_loc_flat"
  flatten_param {
    axis: 1
  }
}
layer {
  name: "conv4_3_norm_mbox_conf"
  type: "Convolution"
  bottom: "conv4_3_norm"
  top: "conv4_3_norm_mbox_conf"
  param {
    lr_mult: 1
    decay_mult: 1
  }
  param {
    lr_mult: 2
    decay_mult: 0
  }
  convolution_param {
    num_output: 40
    pad: 1
    kernel_size: 3
    stride: 1
    weight_filler {
      type: "xavier"
    }
    bias_filler {
      type: "constant"
      value: 0
    }
  }
}
layer {
  name: "conv4_3_norm_mbox_conf_perm"
  type: "Permute"
  bottom: "conv4_3_norm_mbox_conf"
  top: "conv4_3_norm_mbox_conf_perm"
  permute_param {
    order: 0
    order: 2
    order: 3
    order: 1
  }
}
layer {
  name: "conv4_3_norm_mbox_conf_flat"
  type: "Flatten"
  bottom: "conv4_3_norm_mbox_conf_perm"
  top: "conv4_3_norm_mbox_conf_flat"
  flatten_param {
    axis: 1
  }
}
layer {
  name: "conv4_3_norm_mbox_priorbox"
  type: "PriorBox"
  bottom: "conv4_3_norm"
  bottom: "data"
  top: "conv4_3_norm_mbox_priorbox"
  prior_box_param {
    min_size: 22.748627
    max_size: 45.497253
    aspect_ratio: 2
    flip: true
    clip: false
    variance: 0.1
    variance: 0.1
    variance: 0.2
    variance: 0.2
    step: 8
    offset: 0.5
  }
}
layer {
  name: "fc7_conv_mbox_loc"
  type: "Convolution"
  bottom: "fc7_conv"
  top: "fc7_conv_mbox_loc"
  param {
    lr_mult: 1
    decay_mult: 1
  }
  param {
    lr_mult: 2
    decay_mult: 0
  }
  convolution_param {
    num_output: 24
    pad: 1
    kernel_size: 3
    stride: 1
    weight_filler {
      type: "xavier"
    }
    bias_filler {
      type: "constant"
      value: 0
    }
  }
}
layer {
  name: "fc7_conv_mbox_loc_perm"
  type: "Permute"
  bottom: "fc7_conv_mbox_loc"
  top: "fc7_conv_mbox_loc_perm"
  permute_param {
    order: 0
    order: 2
    order: 3
    order: 1
  }
}
layer {
  name: "fc7_conv_mbox_loc_flat"
  type: "Flatten"
  bottom: "fc7_conv_mbox_loc_perm"
  top: "fc7_conv_mbox_loc_flat"
  flatten_param {
    axis: 1
  }
}
layer {
  name: "fc7_conv_mbox_conf"
  type: "Convolution"
  bottom: "fc7_conv"
  top: "fc7_conv_mbox_conf"
  param {
    lr_mult: 1
    decay_mult: 1
  }
  param {
    lr_mult: 2
    decay_mult: 0
  }
  convolution_param {
    num_output: 60
    pad: 1
    kernel_size: 3
    stride: 1
    weight_filler {
      type: "xavier"
    }
    bias_filler {
      type: "constant"
      value: 0
    }
  }
}
layer {
  name: "fc7_conv_mbox_conf_perm"
  type: "Permute"
  bottom: "fc7_conv_mbox_conf"
  top: "fc7_conv_mbox_conf_perm"
  permute_param {
    order: 0
    order: 2
    order: 3
    order: 1
  }
}
layer {
  name: "fc7_conv_mbox_conf_flat"
  type: "Flatten"
  bottom: "fc7_conv_mbox_conf_perm"
  top: "fc7_conv_mbox_conf_flat"
  flatten_param {
    axis: 1
  }
}
layer {
  name: "fc7_conv_mbox_priorbox"
  type: "PriorBox"
  bottom: "fc7_conv"
  bottom: "data"
  top: "fc7_conv_mbox_priorbox"
  prior_box_param {
    min_size: 45.497253
    max_size: 84.169914
    aspect_ratio: 2
    aspect_ratio: 3
    flip: true
    clip: false
    variance: 0.1
    variance: 0.1
    variance: 0.2
    variance: 0.2
    step: 16
    offset: 0.5
  }
}
layer {
  name: "conv6_2_mbox_loc"
  type: "Convolution"
  bottom: "conv6_2"
  top: "conv6_2_mbox_loc"
  param {
    lr_mult: 1
    decay_mult: 1
  }
  param {
    lr_mult: 2
    decay_mult: 0
  }
  convolution_param {
    num_output: 24
    pad: 1
    kernel_size: 3
    stride: 1
    weight_filler {
      type: "xavier"
    }
    bias_filler {
      type: "constant"
      value: 0
    }
  }
}
layer {
  name: "conv6_2_mbox_loc_perm"
  type: "Permute"
  bottom: "conv6_2_mbox_loc"
  top: "conv6_2_mbox_loc_perm"
  permute_param {
    order: 0
    order: 2
    order: 3
    order: 1
  }
}
layer {
  name: "conv6_2_mbox_loc_flat"
  type: "Flatten"
  bottom: "conv6_2_mbox_loc_perm"
  top: "conv6_2_mbox_loc_flat"
  flatten_param {
    axis: 1
  }
}
layer {
  name: "conv6_2_mbox_conf"
  type: "Convolution"
  bottom: "conv6_2"
  top: "conv6_2_mbox_conf"
  param {
    lr_mult: 1
    decay_mult: 1
  }
  param {
    lr_mult: 2
    decay_mult: 0
  }
  convolution_param {
    num_output: 60
    pad: 1
    kernel_size: 3
    stride: 1
    weight_filler {
      type: "xavier"
    }
    bias_filler {
      type: "constant"
      value: 0
    }
  }
}
layer {
  name: "conv6_2_mbox_conf_perm"
  type: "Permute"
  bottom: "conv6_2_mbox_conf"
  top: "conv6_2_mbox_conf_perm"
  permute_param {
    order: 0
    order: 2
    order: 3
    order: 1
  }
}
layer {
  name: "conv6_2_mbox_conf_flat"
  type: "Flatten"
  bottom: "conv6_2_mbox_conf_perm"
  top: "conv6_2_mbox_conf_flat"
  flatten_param {
    axis: 1
  }
}
layer {
  name: "conv6_2_mbox_priorbox"
  type: "PriorBox"
  bottom: "conv6_2"
  bottom: "data"
  top: "conv6_2_mbox_priorbox"
  prior_box_param {
    min_size: 84.169914
    max_size: 122.84258
    aspect_ratio: 2
    aspect_ratio: 3
    flip: true
    clip: false
    variance: 0.1
    variance: 0.1
    variance: 0.2
    variance: 0.2
    step: 32
    offset: 0.5
  }
}
layer {
  name: "conv7_2_mbox_loc"
  type: "Convolution"
  bottom: "conv7_2"
  top: "conv7_2_mbox_loc"
  param {
    lr_mult: 1
    decay_mult: 1
  }
  param {
    lr_mult: 2
    decay_mult: 0
  }
  convolution_param {
    num_output: 24
    pad: 1
    kernel_size: 3
    stride: 1
    weight_filler {
      type: "xavier"
    }
    bias_filler {
      type: "constant"
      value: 0
    }
  }
}
layer {
  name: "conv7_2_mbox_loc_perm"
  type: "Permute"
  bottom: "conv7_2_mbox_loc"
  top: "conv7_2_mbox_loc_perm"
  permute_param {
    order: 0
    order: 2
    order: 3
    order: 1
  }
}
layer {
  name: "conv7_2_mbox_loc_flat"
  type: "Flatten"
  bottom: "conv7_2_mbox_loc_perm"
  top: "conv7_2_mbox_loc_flat"
  flatten_param {
    axis: 1
  }
}
layer {
  name: "conv7_2_mbox_conf"
  type: "Convolution"
  bottom: "conv7_2"
  top: "conv7_2_mbox_conf"
  param {
    lr_mult: 1
    decay_mult: 1
  }
  param {
    lr_mult: 2
    decay_mult: 0
  }
  convolution_param {
    num_output: 60
    pad: 1
    kernel_size: 3
    stride: 1
    weight_filler {
      type: "xavier"
    }
    bias_filler {
      type: "constant"
      value: 0
    }
  }
}
layer {
  name: "conv7_2_mbox_conf_perm"
  type: "Permute"
  bottom: "conv7_2_mbox_conf"
  top: "conv7_2_mbox_conf_perm"
  permute_param {
    order: 0
    order: 2
    order: 3
    order: 1
  }
}
layer {
  name: "conv7_2_mbox_conf_flat"
  type: "Flatten"
  bottom: "conv7_2_mbox_conf_perm"
  top: "conv7_2_mbox_conf_flat"
  flatten_param {
    axis: 1
  }
}
layer {
  name: "conv7_2_mbox_priorbox"
  type: "PriorBox"
  bottom: "conv7_2"
  bottom: "data"
  top: "conv7_2_mbox_priorbox"
  prior_box_param {
    min_size: 122.84258
    max_size: 161.51524
    aspect_ratio: 2
    aspect_ratio: 3
    flip: true
    clip: false
    variance: 0.1
    variance: 0.1
    variance: 0.2
    variance: 0.2
    step: 64
    offset: 0.5
  }
}
layer {
  name: "conv8_2_mbox_loc"
  type: "Convolution"
  bottom: "conv8_2"
  top: "conv8_2_mbox_loc"
  param {
    lr_mult: 1
    decay_mult: 1
  }
  param {
    lr_mult: 2
    decay_mult: 0
  }
  convolution_param {
    num_output: 16
    pad: 1
    kernel_size: 3
    stride: 1
    weight_filler {
      type: "xavier"
    }
    bias_filler {
      type: "constant"
      value: 0
    }
  }
}
layer {
  name: "conv8_2_mbox_loc_perm"
  type: "Permute"
  bottom: "conv8_2_mbox_loc"
  top: "conv8_2_mbox_loc_perm"
  permute_param {
    order: 0
    order: 2
    order: 3
    order: 1
  }
}
layer {
  name: "conv8_2_mbox_loc_flat"
  type: "Flatten"
  bottom: "conv8_2_mbox_loc_perm"
  top: "conv8_2_mbox_loc_flat"
  flatten_param {
    axis: 1
  }
}
layer {
  name: "conv8_2_mbox_conf"
  type: "Convolution"
  bottom: "conv8_2"
  top: "conv8_2_mbox_conf"
  param {
    lr_mult: 1
    decay_mult: 1
  }
  param {
    lr_mult: 2
    decay_mult: 0
  }
  convolution_param {
    num_output: 40
    pad: 1
    kernel_size: 3
    stride: 1
    weight_filler {
      type: "xavier"
    }
    bias_filler {
      type: "constant"
      value: 0
    }
  }
}
layer {
  name: "conv8_2_mbox_conf_perm"
  type: "Permute"
  bottom: "conv8_2_mbox_conf"
  top: "conv8_2_mbox_conf_perm"
  permute_param {
    order: 0
    order: 2
    order: 3
    order: 1
  }
}
layer {
  name: "conv8_2_mbox_conf_flat"
  type: "Flatten"
  bottom: "conv8_2_mbox_conf_perm"
  top: "conv8_2_mbox_conf_flat"
  flatten_param {
    axis: 1
  }
}
layer {
  name: "conv8_2_mbox_priorbox"
  type: "PriorBox"
  bottom: "conv8_2"
  bottom: "data"
  top: "conv8_2_mbox_priorbox"
  prior_box_param {
    min_size: 161.51524
    max_size: 200.18791
    aspect_ratio: 2
    flip: true
    clip: false
    variance: 0.1
    variance: 0.1
    variance: 0.2
    variance: 0.2
    step: 100
    offset: 0.5
  }
}
layer {
  name: "pool6_mbox_loc"
  type: "Convolution"
  bottom: "pool6"
  top: "pool6_mbox_loc"
  param {
    lr_mult: 1
    decay_mult: 1
  }
  param {
    lr_mult: 2
    decay_mult: 0
  }
  convolution_param {
    num_output: 16
    pad: 1
    kernel_size: 3
    stride: 1
    weight_filler {
      type: "xavier"
    }
    bias_filler {
      type: "constant"
      value: 0
    }
  }
}
layer {
  name: "pool6_mbox_loc_perm"
  type: "Permute"
  bottom: "pool6_mbox_loc"
  top: "pool6_mbox_loc_perm"
  permute_param {
    order: 0
    order: 2
    order: 3
    order: 1
  }
}
layer {
  name: "pool6_mbox_loc_flat"
  type: "Flatten"
  bottom: "pool6_mbox_loc_perm"
  top: "pool6_mbox_loc_flat"
  flatten_param {
    axis: 1
  }
}
layer {
  name: "pool6_mbox_conf"
  type: "Convolution"
  bottom: "pool6"
  top: "pool6_mbox_conf"
  param {
    lr_mult: 1
    decay_mult: 1
  }
  param {
    lr_mult: 2
    decay_mult: 0
  }
  convolution_param {
    num_output: 40
    pad: 1
    kernel_size: 3
    stride: 1
    weight_filler {
      type: "xavier"
    }
    bias_filler {
      type: "constant"
      value: 0
    }
  }
}
layer {
  name: "pool6_mbox_conf_perm"
  type: "Permute"
  bottom: "pool6_mbox_conf"
  top: "pool6_mbox_conf_perm"
  permute_param {
    order: 0
    order: 2
    order: 3
    order: 1
  }
}
layer {
  name: "pool6_mbox_conf_flat"
  type: "Flatten"
  bottom: "pool6_mbox_conf_perm"
  top: "pool6_mbox_conf_flat"
  flatten_param {
    axis: 1
  }
}
layer {
  name: "pool6_mbox_priorbox"
  type: "PriorBox"
  bottom: "pool6"
  bottom: "data"
  top: "pool6_mbox_priorbox"
  prior_box_param {
    min_size: 200.18791
    max_size: 238.86058
    aspect_ratio: 2
    flip: true
    clip: false
    variance: 0.1
    variance: 0.1
    variance: 0.2
    variance: 0.2
    step: 300
    offset: 0.5
  }
}
layer {
  name: "mbox_loc"
  type: "Concat"
  bottom: "conv4_3_norm_mbox_loc_flat"
  bottom: "fc7_conv_mbox_loc_flat"
  bottom: "conv6_2_mbox_loc_flat"
  bottom: "conv7_2_mbox_loc_flat"
  bottom: "conv8_2_mbox_loc_flat"
  bottom: "pool6_mbox_loc_flat"
  top: "mbox_loc"
  concat_param {
    axis: 1
  }
}
layer {
  name: "mbox_conf"
  type: "Concat"
  bottom: "conv4_3_norm_mbox_conf_flat"
  bottom: "fc7_conv_mbox_conf_flat"
  bottom: "conv6_2_mbox_conf_flat"
  bottom: "conv7_2_mbox_conf_flat"
  bottom: "conv8_2_mbox_conf_flat"
  bottom: "pool6_mbox_conf_flat"
  top: "mbox_conf"
  concat_param {
    axis: 1
  }
}
layer {
  name: "mbox_priorbox"
  type: "Concat"
  bottom: "conv4_3_norm_mbox_priorbox"
  bottom: "fc7_conv_mbox_priorbox"
  bottom: "conv6_2_mbox_priorbox"
  bottom: "conv7_2_mbox_priorbox"
  bottom: "conv8_2_mbox_priorbox"
  bottom: "pool6_mbox_priorbox"
  top: "mbox_priorbox"
  concat_param {
    axis: 2
  }
}
layer {
  name: "mbox_conf_reshape"
  type: "Reshape"
  bottom: "mbox_conf"
  top: "mbox_conf_reshape"
  reshape_param {
    shape {
      dim: 0
      dim: -1
      dim: 10
    }
  }
}
layer {
  name: "mbox_conf_softmax"
  type: "Softmax"
  bottom: "mbox_conf_reshape"
  top: "mbox_conf_softmax"
  softmax_param {
    axis: 2
  }
}
layer {
  name: "mbox_conf_flatten"
  type: "Flatten"
  bottom: "mbox_conf_softmax"
  top: "mbox_conf_flatten"
  flatten_param {
    axis: 1
  }
}
layer {
  name: "detection_out"
  type: "DetectionOutput"
  bottom: "mbox_loc"
  bottom: "mbox_conf_flatten"
  bottom: "mbox_priorbox"
  top: "detection_out"
  include {
    phase: TEST
  }
  detection_output_param {
    num_classes: 10
    share_location: true
    background_label_id: 9
    nms_param {
      nms_threshold: 0.45
      top_k: 400
    }
    save_output_param {
      output_directory: "/home/chenqi-didi/data/KITTI/results/SSD_414x125/Main"
      output_name_prefix: "comp4_det_test_"
      output_format: "VOC"
      label_map_file: "/media/jinfagang-workspace/Jinfagang-Use/SSD/KITTI/data/labelmap_kitti.prototxt"
      name_size_file: "/media/jinfagang-workspace/Jinfagang-Use/SSD/KITTI/data/test_name_size.txt"
      num_test_image: 1497
    }
    code_type: CENTER_SIZE
    keep_top_k: 200
    confidence_threshold: 0.01
  }
}
layer {
  name: "detection_eval"
  type: "DetectionEvaluate"
  bottom: "detection_out"
  bottom: "label"
  top: "detection_eval"
  include {
    phase: TEST
  }
  detection_evaluate_param {
    num_classes: 10
    background_label_id: 9
    overlap_threshold: 0.5
    evaluate_difficult_gt: false
    name_size_file: "/media/jinfagang-workspace/Jinfagang-Use/SSD/KITTI/data/test_name_size.txt"
  }
}
I0120 12:24:22.677799 29408 layer_factory.hpp:77] Creating layer data
I0120 12:24:22.677840 29408 net.cpp:100] Creating Layer data
I0120 12:24:22.677845 29408 net.cpp:408] data -> data
I0120 12:24:22.677850 29408 net.cpp:408] data -> label
I0120 12:24:22.678488 29444 db_lmdb.cpp:35] Opened lmdb /home/chenqi-didi/data/KITTI/lmdb/KITTI_test_lmdb
I0120 12:24:22.681710 29408 annotated_data_layer.cpp:62] output data size: 8,3,125,414
I0120 12:24:22.688550 29408 net.cpp:150] Setting up data
I0120 12:24:22.688570 29408 net.cpp:157] Top shape: 8 3 125 414 (1242000)
I0120 12:24:22.688573 29408 net.cpp:157] Top shape: 1 1 5 8 (40)
I0120 12:24:22.688590 29408 net.cpp:165] Memory required for data: 4968160
I0120 12:24:22.688594 29408 layer_factory.hpp:77] Creating layer data_data_0_split
I0120 12:24:22.688606 29408 net.cpp:100] Creating Layer data_data_0_split
I0120 12:24:22.688609 29408 net.cpp:434] data_data_0_split <- data
I0120 12:24:22.688614 29408 net.cpp:408] data_data_0_split -> data_data_0_split_0
I0120 12:24:22.688622 29408 net.cpp:408] data_data_0_split -> data_data_0_split_1
I0120 12:24:22.688627 29408 net.cpp:408] data_data_0_split -> data_data_0_split_2
I0120 12:24:22.688632 29408 net.cpp:408] data_data_0_split -> data_data_0_split_3
I0120 12:24:22.688635 29408 net.cpp:408] data_data_0_split -> data_data_0_split_4
I0120 12:24:22.688639 29408 net.cpp:408] data_data_0_split -> data_data_0_split_5
I0120 12:24:22.688642 29408 net.cpp:408] data_data_0_split -> data_data_0_split_6
I0120 12:24:22.688725 29408 net.cpp:150] Setting up data_data_0_split
I0120 12:24:22.688730 29408 net.cpp:157] Top shape: 8 3 125 414 (1242000)
I0120 12:24:22.688731 29408 net.cpp:157] Top shape: 8 3 125 414 (1242000)
I0120 12:24:22.688733 29408 net.cpp:157] Top shape: 8 3 125 414 (1242000)
I0120 12:24:22.688736 29408 net.cpp:157] Top shape: 8 3 125 414 (1242000)
I0120 12:24:22.688738 29408 net.cpp:157] Top shape: 8 3 125 414 (1242000)
I0120 12:24:22.688740 29408 net.cpp:157] Top shape: 8 3 125 414 (1242000)
I0120 12:24:22.688742 29408 net.cpp:157] Top shape: 8 3 125 414 (1242000)
I0120 12:24:22.688745 29408 net.cpp:165] Memory required for data: 39744160
I0120 12:24:22.688746 29408 layer_factory.hpp:77] Creating layer conv1_1
I0120 12:24:22.688752 29408 net.cpp:100] Creating Layer conv1_1
I0120 12:24:22.688755 29408 net.cpp:434] conv1_1 <- data_data_0_split_0
I0120 12:24:22.688758 29408 net.cpp:408] conv1_1 -> conv1_1
I0120 12:24:22.706418 29408 net.cpp:150] Setting up conv1_1
I0120 12:24:22.706429 29408 net.cpp:157] Top shape: 8 64 125 414 (26496000)
I0120 12:24:22.706430 29408 net.cpp:165] Memory required for data: 145728160
I0120 12:24:22.706437 29408 layer_factory.hpp:77] Creating layer relu1_1
I0120 12:24:22.706442 29408 net.cpp:100] Creating Layer relu1_1
I0120 12:24:22.706444 29408 net.cpp:434] relu1_1 <- conv1_1
I0120 12:24:22.706446 29408 net.cpp:395] relu1_1 -> conv1_1 (in-place)
I0120 12:24:22.706559 29408 net.cpp:150] Setting up relu1_1
I0120 12:24:22.706564 29408 net.cpp:157] Top shape: 8 64 125 414 (26496000)
I0120 12:24:22.706565 29408 net.cpp:165] Memory required for data: 251712160
I0120 12:24:22.706568 29408 layer_factory.hpp:77] Creating layer conv1_2
I0120 12:24:22.706573 29408 net.cpp:100] Creating Layer conv1_2
I0120 12:24:22.706575 29408 net.cpp:434] conv1_2 <- conv1_1
I0120 12:24:22.706579 29408 net.cpp:408] conv1_2 -> conv1_2
I0120 12:24:22.707454 29408 net.cpp:150] Setting up conv1_2
I0120 12:24:22.707463 29408 net.cpp:157] Top shape: 8 64 125 414 (26496000)
I0120 12:24:22.707464 29408 net.cpp:165] Memory required for data: 357696160
I0120 12:24:22.707469 29408 layer_factory.hpp:77] Creating layer relu1_2
I0120 12:24:22.707473 29408 net.cpp:100] Creating Layer relu1_2
I0120 12:24:22.707475 29408 net.cpp:434] relu1_2 <- conv1_2
I0120 12:24:22.707479 29408 net.cpp:395] relu1_2 -> conv1_2 (in-place)
I0120 12:24:22.707578 29408 net.cpp:150] Setting up relu1_2
I0120 12:24:22.707583 29408 net.cpp:157] Top shape: 8 64 125 414 (26496000)
I0120 12:24:22.707586 29408 net.cpp:165] Memory required for data: 463680160
I0120 12:24:22.707587 29408 layer_factory.hpp:77] Creating layer pool1
I0120 12:24:22.707592 29408 net.cpp:100] Creating Layer pool1
I0120 12:24:22.707593 29408 net.cpp:434] pool1 <- conv1_2
I0120 12:24:22.707597 29408 net.cpp:408] pool1 -> pool1
I0120 12:24:22.707624 29408 net.cpp:150] Setting up pool1
I0120 12:24:22.707628 29408 net.cpp:157] Top shape: 8 64 63 207 (6676992)
I0120 12:24:22.707629 29408 net.cpp:165] Memory required for data: 490388128
I0120 12:24:22.707631 29408 layer_factory.hpp:77] Creating layer conv2_1
I0120 12:24:22.707635 29408 net.cpp:100] Creating Layer conv2_1
I0120 12:24:22.707638 29408 net.cpp:434] conv2_1 <- pool1
I0120 12:24:22.707650 29408 net.cpp:408] conv2_1 -> conv2_1
I0120 12:24:22.708834 29408 net.cpp:150] Setting up conv2_1
I0120 12:24:22.708842 29408 net.cpp:157] Top shape: 8 128 63 207 (13353984)
I0120 12:24:22.708844 29408 net.cpp:165] Memory required for data: 543804064
I0120 12:24:22.708849 29408 layer_factory.hpp:77] Creating layer relu2_1
I0120 12:24:22.708854 29408 net.cpp:100] Creating Layer relu2_1
I0120 12:24:22.708858 29408 net.cpp:434] relu2_1 <- conv2_1
I0120 12:24:22.708860 29408 net.cpp:395] relu2_1 -> conv2_1 (in-place)
I0120 12:24:22.709226 29408 net.cpp:150] Setting up relu2_1
I0120 12:24:22.709235 29408 net.cpp:157] Top shape: 8 128 63 207 (13353984)
I0120 12:24:22.709236 29408 net.cpp:165] Memory required for data: 597220000
I0120 12:24:22.709239 29408 layer_factory.hpp:77] Creating layer conv2_2
I0120 12:24:22.709245 29408 net.cpp:100] Creating Layer conv2_2
I0120 12:24:22.709249 29408 net.cpp:434] conv2_2 <- conv2_1
I0120 12:24:22.709251 29408 net.cpp:408] conv2_2 -> conv2_2
I0120 12:24:22.711146 29408 net.cpp:150] Setting up conv2_2
I0120 12:24:22.711156 29408 net.cpp:157] Top shape: 8 128 63 207 (13353984)
I0120 12:24:22.711158 29408 net.cpp:165] Memory required for data: 650635936
I0120 12:24:22.711163 29408 layer_factory.hpp:77] Creating layer relu2_2
I0120 12:24:22.711166 29408 net.cpp:100] Creating Layer relu2_2
I0120 12:24:22.711169 29408 net.cpp:434] relu2_2 <- conv2_2
I0120 12:24:22.711171 29408 net.cpp:395] relu2_2 -> conv2_2 (in-place)
I0120 12:24:22.711287 29408 net.cpp:150] Setting up relu2_2
I0120 12:24:22.711292 29408 net.cpp:157] Top shape: 8 128 63 207 (13353984)
I0120 12:24:22.711293 29408 net.cpp:165] Memory required for data: 704051872
I0120 12:24:22.711295 29408 layer_factory.hpp:77] Creating layer pool2
I0120 12:24:22.711299 29408 net.cpp:100] Creating Layer pool2
I0120 12:24:22.711302 29408 net.cpp:434] pool2 <- conv2_2
I0120 12:24:22.711303 29408 net.cpp:408] pool2 -> pool2
I0120 12:24:22.711336 29408 net.cpp:150] Setting up pool2
I0120 12:24:22.711339 29408 net.cpp:157] Top shape: 8 128 32 104 (3407872)
I0120 12:24:22.711341 29408 net.cpp:165] Memory required for data: 717683360
I0120 12:24:22.711343 29408 layer_factory.hpp:77] Creating layer conv3_1
I0120 12:24:22.711347 29408 net.cpp:100] Creating Layer conv3_1
I0120 12:24:22.711349 29408 net.cpp:434] conv3_1 <- pool2
I0120 12:24:22.711352 29408 net.cpp:408] conv3_1 -> conv3_1
I0120 12:24:22.713992 29408 net.cpp:150] Setting up conv3_1
I0120 12:24:22.714005 29408 net.cpp:157] Top shape: 8 256 32 104 (6815744)
I0120 12:24:22.714007 29408 net.cpp:165] Memory required for data: 744946336
I0120 12:24:22.714015 29408 layer_factory.hpp:77] Creating layer relu3_1
I0120 12:24:22.714020 29408 net.cpp:100] Creating Layer relu3_1
I0120 12:24:22.714022 29408 net.cpp:434] relu3_1 <- conv3_1
I0120 12:24:22.714025 29408 net.cpp:395] relu3_1 -> conv3_1 (in-place)
I0120 12:24:22.714138 29408 net.cpp:150] Setting up relu3_1
I0120 12:24:22.714143 29408 net.cpp:157] Top shape: 8 256 32 104 (6815744)
I0120 12:24:22.714144 29408 net.cpp:165] Memory required for data: 772209312
I0120 12:24:22.714146 29408 layer_factory.hpp:77] Creating layer conv3_2
I0120 12:24:22.714151 29408 net.cpp:100] Creating Layer conv3_2
I0120 12:24:22.714154 29408 net.cpp:434] conv3_2 <- conv3_1
I0120 12:24:22.714157 29408 net.cpp:408] conv3_2 -> conv3_2
I0120 12:24:22.717721 29408 net.cpp:150] Setting up conv3_2
I0120 12:24:22.717730 29408 net.cpp:157] Top shape: 8 256 32 104 (6815744)
I0120 12:24:22.717732 29408 net.cpp:165] Memory required for data: 799472288
I0120 12:24:22.717736 29408 layer_factory.hpp:77] Creating layer relu3_2
I0120 12:24:22.717739 29408 net.cpp:100] Creating Layer relu3_2
I0120 12:24:22.717741 29408 net.cpp:434] relu3_2 <- conv3_2
I0120 12:24:22.717744 29408 net.cpp:395] relu3_2 -> conv3_2 (in-place)
I0120 12:24:22.717856 29408 net.cpp:150] Setting up relu3_2
I0120 12:24:22.717861 29408 net.cpp:157] Top shape: 8 256 32 104 (6815744)
I0120 12:24:22.717862 29408 net.cpp:165] Memory required for data: 826735264
I0120 12:24:22.717864 29408 layer_factory.hpp:77] Creating layer conv3_3
I0120 12:24:22.717883 29408 net.cpp:100] Creating Layer conv3_3
I0120 12:24:22.717886 29408 net.cpp:434] conv3_3 <- conv3_2
I0120 12:24:22.717890 29408 net.cpp:408] conv3_3 -> conv3_3
I0120 12:24:22.721482 29408 net.cpp:150] Setting up conv3_3
I0120 12:24:22.721493 29408 net.cpp:157] Top shape: 8 256 32 104 (6815744)
I0120 12:24:22.721494 29408 net.cpp:165] Memory required for data: 853998240
I0120 12:24:22.721498 29408 layer_factory.hpp:77] Creating layer relu3_3
I0120 12:24:22.721501 29408 net.cpp:100] Creating Layer relu3_3
I0120 12:24:22.721504 29408 net.cpp:434] relu3_3 <- conv3_3
I0120 12:24:22.721508 29408 net.cpp:395] relu3_3 -> conv3_3 (in-place)
I0120 12:24:22.721618 29408 net.cpp:150] Setting up relu3_3
I0120 12:24:22.721623 29408 net.cpp:157] Top shape: 8 256 32 104 (6815744)
I0120 12:24:22.721626 29408 net.cpp:165] Memory required for data: 881261216
I0120 12:24:22.721627 29408 layer_factory.hpp:77] Creating layer pool3
I0120 12:24:22.721631 29408 net.cpp:100] Creating Layer pool3
I0120 12:24:22.721632 29408 net.cpp:434] pool3 <- conv3_3
I0120 12:24:22.721635 29408 net.cpp:408] pool3 -> pool3
I0120 12:24:22.721665 29408 net.cpp:150] Setting up pool3
I0120 12:24:22.721669 29408 net.cpp:157] Top shape: 8 256 16 52 (1703936)
I0120 12:24:22.721670 29408 net.cpp:165] Memory required for data: 888076960
I0120 12:24:22.721673 29408 layer_factory.hpp:77] Creating layer conv4_1
I0120 12:24:22.721676 29408 net.cpp:100] Creating Layer conv4_1
I0120 12:24:22.721678 29408 net.cpp:434] conv4_1 <- pool3
I0120 12:24:22.721681 29408 net.cpp:408] conv4_1 -> conv4_1
I0120 12:24:22.727843 29408 net.cpp:150] Setting up conv4_1
I0120 12:24:22.727857 29408 net.cpp:157] Top shape: 8 512 16 52 (3407872)
I0120 12:24:22.727859 29408 net.cpp:165] Memory required for data: 901708448
I0120 12:24:22.727865 29408 layer_factory.hpp:77] Creating layer relu4_1
I0120 12:24:22.727870 29408 net.cpp:100] Creating Layer relu4_1
I0120 12:24:22.727872 29408 net.cpp:434] relu4_1 <- conv4_1
I0120 12:24:22.727876 29408 net.cpp:395] relu4_1 -> conv4_1 (in-place)
I0120 12:24:22.727993 29408 net.cpp:150] Setting up relu4_1
I0120 12:24:22.727998 29408 net.cpp:157] Top shape: 8 512 16 52 (3407872)
I0120 12:24:22.728000 29408 net.cpp:165] Memory required for data: 915339936
I0120 12:24:22.728001 29408 layer_factory.hpp:77] Creating layer conv4_2
I0120 12:24:22.728008 29408 net.cpp:100] Creating Layer conv4_2
I0120 12:24:22.728010 29408 net.cpp:434] conv4_2 <- conv4_1
I0120 12:24:22.728016 29408 net.cpp:408] conv4_2 -> conv4_2
I0120 12:24:22.739151 29408 net.cpp:150] Setting up conv4_2
I0120 12:24:22.739167 29408 net.cpp:157] Top shape: 8 512 16 52 (3407872)
I0120 12:24:22.739171 29408 net.cpp:165] Memory required for data: 928971424
I0120 12:24:22.739178 29408 layer_factory.hpp:77] Creating layer relu4_2
I0120 12:24:22.739184 29408 net.cpp:100] Creating Layer relu4_2
I0120 12:24:22.739187 29408 net.cpp:434] relu4_2 <- conv4_2
I0120 12:24:22.739192 29408 net.cpp:395] relu4_2 -> conv4_2 (in-place)
I0120 12:24:22.739568 29408 net.cpp:150] Setting up relu4_2
I0120 12:24:22.739575 29408 net.cpp:157] Top shape: 8 512 16 52 (3407872)
I0120 12:24:22.739578 29408 net.cpp:165] Memory required for data: 942602912
I0120 12:24:22.739579 29408 layer_factory.hpp:77] Creating layer conv4_3
I0120 12:24:22.739586 29408 net.cpp:100] Creating Layer conv4_3
I0120 12:24:22.739588 29408 net.cpp:434] conv4_3 <- conv4_2
I0120 12:24:22.739593 29408 net.cpp:408] conv4_3 -> conv4_3
I0120 12:24:22.750891 29408 net.cpp:150] Setting up conv4_3
I0120 12:24:22.750906 29408 net.cpp:157] Top shape: 8 512 16 52 (3407872)
I0120 12:24:22.750908 29408 net.cpp:165] Memory required for data: 956234400
I0120 12:24:22.750913 29408 layer_factory.hpp:77] Creating layer relu4_3
I0120 12:24:22.750919 29408 net.cpp:100] Creating Layer relu4_3
I0120 12:24:22.750922 29408 net.cpp:434] relu4_3 <- conv4_3
I0120 12:24:22.750926 29408 net.cpp:395] relu4_3 -> conv4_3 (in-place)
I0120 12:24:22.751044 29408 net.cpp:150] Setting up relu4_3
I0120 12:24:22.751050 29408 net.cpp:157] Top shape: 8 512 16 52 (3407872)
I0120 12:24:22.751063 29408 net.cpp:165] Memory required for data: 969865888
I0120 12:24:22.751065 29408 layer_factory.hpp:77] Creating layer conv4_3_relu4_3_0_split
I0120 12:24:22.751068 29408 net.cpp:100] Creating Layer conv4_3_relu4_3_0_split
I0120 12:24:22.751070 29408 net.cpp:434] conv4_3_relu4_3_0_split <- conv4_3
I0120 12:24:22.751075 29408 net.cpp:408] conv4_3_relu4_3_0_split -> conv4_3_relu4_3_0_split_0
I0120 12:24:22.751078 29408 net.cpp:408] conv4_3_relu4_3_0_split -> conv4_3_relu4_3_0_split_1
I0120 12:24:22.751108 29408 net.cpp:150] Setting up conv4_3_relu4_3_0_split
I0120 12:24:22.751113 29408 net.cpp:157] Top shape: 8 512 16 52 (3407872)
I0120 12:24:22.751116 29408 net.cpp:157] Top shape: 8 512 16 52 (3407872)
I0120 12:24:22.751116 29408 net.cpp:165] Memory required for data: 997128864
I0120 12:24:22.751118 29408 layer_factory.hpp:77] Creating layer pool4
I0120 12:24:22.751122 29408 net.cpp:100] Creating Layer pool4
I0120 12:24:22.751124 29408 net.cpp:434] pool4 <- conv4_3_relu4_3_0_split_0
I0120 12:24:22.751127 29408 net.cpp:408] pool4 -> pool4
I0120 12:24:22.751154 29408 net.cpp:150] Setting up pool4
I0120 12:24:22.751158 29408 net.cpp:157] Top shape: 8 512 8 26 (851968)
I0120 12:24:22.751160 29408 net.cpp:165] Memory required for data: 1000536736
I0120 12:24:22.751161 29408 layer_factory.hpp:77] Creating layer conv5_1
I0120 12:24:22.751168 29408 net.cpp:100] Creating Layer conv5_1
I0120 12:24:22.751171 29408 net.cpp:434] conv5_1 <- pool4
I0120 12:24:22.751174 29408 net.cpp:408] conv5_1 -> conv5_1
I0120 12:24:22.762372 29408 net.cpp:150] Setting up conv5_1
I0120 12:24:22.762390 29408 net.cpp:157] Top shape: 8 512 8 26 (851968)
I0120 12:24:22.762392 29408 net.cpp:165] Memory required for data: 1003944608
I0120 12:24:22.762398 29408 layer_factory.hpp:77] Creating layer relu5_1
I0120 12:24:22.762404 29408 net.cpp:100] Creating Layer relu5_1
I0120 12:24:22.762406 29408 net.cpp:434] relu5_1 <- conv5_1
I0120 12:24:22.762411 29408 net.cpp:395] relu5_1 -> conv5_1 (in-place)
I0120 12:24:22.762528 29408 net.cpp:150] Setting up relu5_1
I0120 12:24:22.762533 29408 net.cpp:157] Top shape: 8 512 8 26 (851968)
I0120 12:24:22.762536 29408 net.cpp:165] Memory required for data: 1007352480
I0120 12:24:22.762537 29408 layer_factory.hpp:77] Creating layer conv5_2
I0120 12:24:22.762544 29408 net.cpp:100] Creating Layer conv5_2
I0120 12:24:22.762547 29408 net.cpp:434] conv5_2 <- conv5_1
I0120 12:24:22.762550 29408 net.cpp:408] conv5_2 -> conv5_2
I0120 12:24:22.773597 29408 net.cpp:150] Setting up conv5_2
I0120 12:24:22.773613 29408 net.cpp:157] Top shape: 8 512 8 26 (851968)
I0120 12:24:22.773615 29408 net.cpp:165] Memory required for data: 1010760352
I0120 12:24:22.773620 29408 layer_factory.hpp:77] Creating layer relu5_2
I0120 12:24:22.773627 29408 net.cpp:100] Creating Layer relu5_2
I0120 12:24:22.773629 29408 net.cpp:434] relu5_2 <- conv5_2
I0120 12:24:22.773633 29408 net.cpp:395] relu5_2 -> conv5_2 (in-place)
I0120 12:24:22.773748 29408 net.cpp:150] Setting up relu5_2
I0120 12:24:22.773754 29408 net.cpp:157] Top shape: 8 512 8 26 (851968)
I0120 12:24:22.773757 29408 net.cpp:165] Memory required for data: 1014168224
I0120 12:24:22.773758 29408 layer_factory.hpp:77] Creating layer conv5_3
I0120 12:24:22.773766 29408 net.cpp:100] Creating Layer conv5_3
I0120 12:24:22.773768 29408 net.cpp:434] conv5_3 <- conv5_2
I0120 12:24:22.773772 29408 net.cpp:408] conv5_3 -> conv5_3
I0120 12:24:22.785034 29408 net.cpp:150] Setting up conv5_3
I0120 12:24:22.785053 29408 net.cpp:157] Top shape: 8 512 8 26 (851968)
I0120 12:24:22.785055 29408 net.cpp:165] Memory required for data: 1017576096
I0120 12:24:22.785060 29408 layer_factory.hpp:77] Creating layer relu5_3
I0120 12:24:22.785068 29408 net.cpp:100] Creating Layer relu5_3
I0120 12:24:22.785071 29408 net.cpp:434] relu5_3 <- conv5_3
I0120 12:24:22.785075 29408 net.cpp:395] relu5_3 -> conv5_3 (in-place)
I0120 12:24:22.785190 29408 net.cpp:150] Setting up relu5_3
I0120 12:24:22.785195 29408 net.cpp:157] Top shape: 8 512 8 26 (851968)
I0120 12:24:22.785197 29408 net.cpp:165] Memory required for data: 1020983968
I0120 12:24:22.785209 29408 layer_factory.hpp:77] Creating layer pool5
I0120 12:24:22.785214 29408 net.cpp:100] Creating Layer pool5
I0120 12:24:22.785217 29408 net.cpp:434] pool5 <- conv5_3
I0120 12:24:22.785219 29408 net.cpp:408] pool5 -> pool5
I0120 12:24:22.785254 29408 net.cpp:150] Setting up pool5
I0120 12:24:22.785259 29408 net.cpp:157] Top shape: 8 512 8 26 (851968)
I0120 12:24:22.785259 29408 net.cpp:165] Memory required for data: 1024391840
I0120 12:24:22.785261 29408 layer_factory.hpp:77] Creating layer fc6_conv
I0120 12:24:22.785267 29408 net.cpp:100] Creating Layer fc6_conv
I0120 12:24:22.785269 29408 net.cpp:434] fc6_conv <- pool5
I0120 12:24:22.785274 29408 net.cpp:408] fc6_conv -> fc6_conv
I0120 12:24:22.805563 29408 net.cpp:150] Setting up fc6_conv
I0120 12:24:22.805579 29408 net.cpp:157] Top shape: 8 1024 8 26 (1703936)
I0120 12:24:22.805582 29408 net.cpp:165] Memory required for data: 1031207584
I0120 12:24:22.805586 29408 layer_factory.hpp:77] Creating layer relu6
I0120 12:24:22.805591 29408 net.cpp:100] Creating Layer relu6
I0120 12:24:22.805594 29408 net.cpp:434] relu6 <- fc6_conv
I0120 12:24:22.805598 29408 net.cpp:395] relu6 -> fc6_conv (in-place)
I0120 12:24:22.806113 29408 net.cpp:150] Setting up relu6
I0120 12:24:22.806120 29408 net.cpp:157] Top shape: 8 1024 8 26 (1703936)
I0120 12:24:22.806123 29408 net.cpp:165] Memory required for data: 1038023328
I0120 12:24:22.806124 29408 layer_factory.hpp:77] Creating layer fc7_conv
I0120 12:24:22.806131 29408 net.cpp:100] Creating Layer fc7_conv
I0120 12:24:22.806133 29408 net.cpp:434] fc7_conv <- fc6_conv
I0120 12:24:22.806139 29408 net.cpp:408] fc7_conv -> fc7_conv
I0120 12:24:22.811493 29408 net.cpp:150] Setting up fc7_conv
I0120 12:24:22.811511 29408 net.cpp:157] Top shape: 8 1024 8 26 (1703936)
I0120 12:24:22.811513 29408 net.cpp:165] Memory required for data: 1044839072
I0120 12:24:22.811519 29408 layer_factory.hpp:77] Creating layer relu7
I0120 12:24:22.811525 29408 net.cpp:100] Creating Layer relu7
I0120 12:24:22.811527 29408 net.cpp:434] relu7 <- fc7_conv
I0120 12:24:22.811532 29408 net.cpp:395] relu7 -> fc7_conv (in-place)
I0120 12:24:22.811966 29408 net.cpp:150] Setting up relu7
I0120 12:24:22.811975 29408 net.cpp:157] Top shape: 8 1024 8 26 (1703936)
I0120 12:24:22.811976 29408 net.cpp:165] Memory required for data: 1051654816
I0120 12:24:22.811978 29408 layer_factory.hpp:77] Creating layer fc7_conv_relu7_0_split
I0120 12:24:22.811983 29408 net.cpp:100] Creating Layer fc7_conv_relu7_0_split
I0120 12:24:22.811985 29408 net.cpp:434] fc7_conv_relu7_0_split <- fc7_conv
I0120 12:24:22.811988 29408 net.cpp:408] fc7_conv_relu7_0_split -> fc7_conv_relu7_0_split_0
I0120 12:24:22.811993 29408 net.cpp:408] fc7_conv_relu7_0_split -> fc7_conv_relu7_0_split_1
I0120 12:24:22.812001 29408 net.cpp:408] fc7_conv_relu7_0_split -> fc7_conv_relu7_0_split_2
I0120 12:24:22.812005 29408 net.cpp:408] fc7_conv_relu7_0_split -> fc7_conv_relu7_0_split_3
I0120 12:24:22.812062 29408 net.cpp:150] Setting up fc7_conv_relu7_0_split
I0120 12:24:22.812065 29408 net.cpp:157] Top shape: 8 1024 8 26 (1703936)
I0120 12:24:22.812068 29408 net.cpp:157] Top shape: 8 1024 8 26 (1703936)
I0120 12:24:22.812070 29408 net.cpp:157] Top shape: 8 1024 8 26 (1703936)
I0120 12:24:22.812072 29408 net.cpp:157] Top shape: 8 1024 8 26 (1703936)
I0120 12:24:22.812073 29408 net.cpp:165] Memory required for data: 1078917792
I0120 12:24:22.812075 29408 layer_factory.hpp:77] Creating layer conv6_1
I0120 12:24:22.812083 29408 net.cpp:100] Creating Layer conv6_1
I0120 12:24:22.812084 29408 net.cpp:434] conv6_1 <- fc7_conv_relu7_0_split_0
I0120 12:24:22.812088 29408 net.cpp:408] conv6_1 -> conv6_1
I0120 12:24:22.814421 29408 net.cpp:150] Setting up conv6_1
I0120 12:24:22.814430 29408 net.cpp:157] Top shape: 8 256 8 26 (425984)
I0120 12:24:22.814432 29408 net.cpp:165] Memory required for data: 1080621728
I0120 12:24:22.814436 29408 layer_factory.hpp:77] Creating layer conv6_1_relu
I0120 12:24:22.814440 29408 net.cpp:100] Creating Layer conv6_1_relu
I0120 12:24:22.814452 29408 net.cpp:434] conv6_1_relu <- conv6_1
I0120 12:24:22.814456 29408 net.cpp:395] conv6_1_relu -> conv6_1 (in-place)
I0120 12:24:22.814571 29408 net.cpp:150] Setting up conv6_1_relu
I0120 12:24:22.814576 29408 net.cpp:157] Top shape: 8 256 8 26 (425984)
I0120 12:24:22.814579 29408 net.cpp:165] Memory required for data: 1082325664
I0120 12:24:22.814580 29408 layer_factory.hpp:77] Creating layer conv6_2
I0120 12:24:22.814585 29408 net.cpp:100] Creating Layer conv6_2
I0120 12:24:22.814589 29408 net.cpp:434] conv6_2 <- conv6_1
I0120 12:24:22.814591 29408 net.cpp:408] conv6_2 -> conv6_2
I0120 12:24:22.820518 29408 net.cpp:150] Setting up conv6_2
I0120 12:24:22.820531 29408 net.cpp:157] Top shape: 8 512 4 13 (212992)
I0120 12:24:22.820534 29408 net.cpp:165] Memory required for data: 1083177632
I0120 12:24:22.820544 29408 layer_factory.hpp:77] Creating layer conv6_2_relu
I0120 12:24:22.820549 29408 net.cpp:100] Creating Layer conv6_2_relu
I0120 12:24:22.820551 29408 net.cpp:434] conv6_2_relu <- conv6_2
I0120 12:24:22.820554 29408 net.cpp:395] conv6_2_relu -> conv6_2 (in-place)
I0120 12:24:22.820931 29408 net.cpp:150] Setting up conv6_2_relu
I0120 12:24:22.820938 29408 net.cpp:157] Top shape: 8 512 4 13 (212992)
I0120 12:24:22.820940 29408 net.cpp:165] Memory required for data: 1084029600
I0120 12:24:22.820942 29408 layer_factory.hpp:77] Creating layer conv6_2_conv6_2_relu_0_split
I0120 12:24:22.820946 29408 net.cpp:100] Creating Layer conv6_2_conv6_2_relu_0_split
I0120 12:24:22.820948 29408 net.cpp:434] conv6_2_conv6_2_relu_0_split <- conv6_2
I0120 12:24:22.820952 29408 net.cpp:408] conv6_2_conv6_2_relu_0_split -> conv6_2_conv6_2_relu_0_split_0
I0120 12:24:22.820957 29408 net.cpp:408] conv6_2_conv6_2_relu_0_split -> conv6_2_conv6_2_relu_0_split_1
I0120 12:24:22.820961 29408 net.cpp:408] conv6_2_conv6_2_relu_0_split -> conv6_2_conv6_2_relu_0_split_2
I0120 12:24:22.820965 29408 net.cpp:408] conv6_2_conv6_2_relu_0_split -> conv6_2_conv6_2_relu_0_split_3
I0120 12:24:22.821020 29408 net.cpp:150] Setting up conv6_2_conv6_2_relu_0_split
I0120 12:24:22.821024 29408 net.cpp:157] Top shape: 8 512 4 13 (212992)
I0120 12:24:22.821027 29408 net.cpp:157] Top shape: 8 512 4 13 (212992)
I0120 12:24:22.821028 29408 net.cpp:157] Top shape: 8 512 4 13 (212992)
I0120 12:24:22.821030 29408 net.cpp:157] Top shape: 8 512 4 13 (212992)
I0120 12:24:22.821033 29408 net.cpp:165] Memory required for data: 1087437472
I0120 12:24:22.821033 29408 layer_factory.hpp:77] Creating layer conv7_1
I0120 12:24:22.821040 29408 net.cpp:100] Creating Layer conv7_1
I0120 12:24:22.821043 29408 net.cpp:434] conv7_1 <- conv6_2_conv6_2_relu_0_split_0
I0120 12:24:22.821045 29408 net.cpp:408] conv7_1 -> conv7_1
I0120 12:24:22.823297 29408 net.cpp:150] Setting up conv7_1
I0120 12:24:22.823307 29408 net.cpp:157] Top shape: 8 128 4 13 (53248)
I0120 12:24:22.823308 29408 net.cpp:165] Memory required for data: 1087650464
I0120 12:24:22.823312 29408 layer_factory.hpp:77] Creating layer conv7_1_relu
I0120 12:24:22.823317 29408 net.cpp:100] Creating Layer conv7_1_relu
I0120 12:24:22.823318 29408 net.cpp:434] conv7_1_relu <- conv7_1
I0120 12:24:22.823321 29408 net.cpp:395] conv7_1_relu -> conv7_1 (in-place)
I0120 12:24:22.823432 29408 net.cpp:150] Setting up conv7_1_relu
I0120 12:24:22.823437 29408 net.cpp:157] Top shape: 8 128 4 13 (53248)
I0120 12:24:22.823439 29408 net.cpp:165] Memory required for data: 1087863456
I0120 12:24:22.823441 29408 layer_factory.hpp:77] Creating layer conv7_2
I0120 12:24:22.823447 29408 net.cpp:100] Creating Layer conv7_2
I0120 12:24:22.823449 29408 net.cpp:434] conv7_2 <- conv7_1
I0120 12:24:22.823453 29408 net.cpp:408] conv7_2 -> conv7_2
I0120 12:24:22.825870 29408 net.cpp:150] Setting up conv7_2
I0120 12:24:22.825880 29408 net.cpp:157] Top shape: 8 256 2 7 (28672)
I0120 12:24:22.825881 29408 net.cpp:165] Memory required for data: 1087978144
I0120 12:24:22.825886 29408 layer_factory.hpp:77] Creating layer conv7_2_relu
I0120 12:24:22.825888 29408 net.cpp:100] Creating Layer conv7_2_relu
I0120 12:24:22.825891 29408 net.cpp:434] conv7_2_relu <- conv7_2
I0120 12:24:22.825907 29408 net.cpp:395] conv7_2_relu -> conv7_2 (in-place)
I0120 12:24:22.826038 29408 net.cpp:150] Setting up conv7_2_relu
I0120 12:24:22.826045 29408 net.cpp:157] Top shape: 8 256 2 7 (28672)
I0120 12:24:22.826046 29408 net.cpp:165] Memory required for data: 1088092832
I0120 12:24:22.826047 29408 layer_factory.hpp:77] Creating layer conv7_2_conv7_2_relu_0_split
I0120 12:24:22.826052 29408 net.cpp:100] Creating Layer conv7_2_conv7_2_relu_0_split
I0120 12:24:22.826055 29408 net.cpp:434] conv7_2_conv7_2_relu_0_split <- conv7_2
I0120 12:24:22.826058 29408 net.cpp:408] conv7_2_conv7_2_relu_0_split -> conv7_2_conv7_2_relu_0_split_0
I0120 12:24:22.826062 29408 net.cpp:408] conv7_2_conv7_2_relu_0_split -> conv7_2_conv7_2_relu_0_split_1
I0120 12:24:22.826066 29408 net.cpp:408] conv7_2_conv7_2_relu_0_split -> conv7_2_conv7_2_relu_0_split_2
I0120 12:24:22.826069 29408 net.cpp:408] conv7_2_conv7_2_relu_0_split -> conv7_2_conv7_2_relu_0_split_3
I0120 12:24:22.826122 29408 net.cpp:150] Setting up conv7_2_conv7_2_relu_0_split
I0120 12:24:22.826126 29408 net.cpp:157] Top shape: 8 256 2 7 (28672)
I0120 12:24:22.826128 29408 net.cpp:157] Top shape: 8 256 2 7 (28672)
I0120 12:24:22.826130 29408 net.cpp:157] Top shape: 8 256 2 7 (28672)
I0120 12:24:22.826133 29408 net.cpp:157] Top shape: 8 256 2 7 (28672)
I0120 12:24:22.826134 29408 net.cpp:165] Memory required for data: 1088551584
I0120 12:24:22.826135 29408 layer_factory.hpp:77] Creating layer conv8_1
I0120 12:24:22.826141 29408 net.cpp:100] Creating Layer conv8_1
I0120 12:24:22.826143 29408 net.cpp:434] conv8_1 <- conv7_2_conv7_2_relu_0_split_0
I0120 12:24:22.826148 29408 net.cpp:408] conv8_1 -> conv8_1
I0120 12:24:22.827052 29408 net.cpp:150] Setting up conv8_1
I0120 12:24:22.827060 29408 net.cpp:157] Top shape: 8 128 2 7 (14336)
I0120 12:24:22.827064 29408 net.cpp:165] Memory required for data: 1088608928
I0120 12:24:22.827066 29408 layer_factory.hpp:77] Creating layer conv8_1_relu
I0120 12:24:22.827069 29408 net.cpp:100] Creating Layer conv8_1_relu
I0120 12:24:22.827071 29408 net.cpp:434] conv8_1_relu <- conv8_1
I0120 12:24:22.827075 29408 net.cpp:395] conv8_1_relu -> conv8_1 (in-place)
I0120 12:24:22.827436 29408 net.cpp:150] Setting up conv8_1_relu
I0120 12:24:22.827443 29408 net.cpp:157] Top shape: 8 128 2 7 (14336)
I0120 12:24:22.827445 29408 net.cpp:165] Memory required for data: 1088666272
I0120 12:24:22.827448 29408 layer_factory.hpp:77] Creating layer conv8_2
I0120 12:24:22.827453 29408 net.cpp:100] Creating Layer conv8_2
I0120 12:24:22.827455 29408 net.cpp:434] conv8_2 <- conv8_1
I0120 12:24:22.827460 29408 net.cpp:408] conv8_2 -> conv8_2
I0120 12:24:22.829571 29408 net.cpp:150] Setting up conv8_2
I0120 12:24:22.829581 29408 net.cpp:157] Top shape: 8 256 1 4 (8192)
I0120 12:24:22.829581 29408 net.cpp:165] Memory required for data: 1088699040
I0120 12:24:22.829586 29408 layer_factory.hpp:77] Creating layer conv8_2_relu
I0120 12:24:22.829589 29408 net.cpp:100] Creating Layer conv8_2_relu
I0120 12:24:22.829591 29408 net.cpp:434] conv8_2_relu <- conv8_2
I0120 12:24:22.829594 29408 net.cpp:395] conv8_2_relu -> conv8_2 (in-place)
I0120 12:24:22.829970 29408 net.cpp:150] Setting up conv8_2_relu
I0120 12:24:22.829979 29408 net.cpp:157] Top shape: 8 256 1 4 (8192)
I0120 12:24:22.829982 29408 net.cpp:165] Memory required for data: 1088731808
I0120 12:24:22.829983 29408 layer_factory.hpp:77] Creating layer conv8_2_conv8_2_relu_0_split
I0120 12:24:22.829987 29408 net.cpp:100] Creating Layer conv8_2_conv8_2_relu_0_split
I0120 12:24:22.829988 29408 net.cpp:434] conv8_2_conv8_2_relu_0_split <- conv8_2
I0120 12:24:22.829993 29408 net.cpp:408] conv8_2_conv8_2_relu_0_split -> conv8_2_conv8_2_relu_0_split_0
I0120 12:24:22.829996 29408 net.cpp:408] conv8_2_conv8_2_relu_0_split -> conv8_2_conv8_2_relu_0_split_1
I0120 12:24:22.830000 29408 net.cpp:408] conv8_2_conv8_2_relu_0_split -> conv8_2_conv8_2_relu_0_split_2
I0120 12:24:22.830003 29408 net.cpp:408] conv8_2_conv8_2_relu_0_split -> conv8_2_conv8_2_relu_0_split_3
I0120 12:24:22.830054 29408 net.cpp:150] Setting up conv8_2_conv8_2_relu_0_split
I0120 12:24:22.830066 29408 net.cpp:157] Top shape: 8 256 1 4 (8192)
I0120 12:24:22.830068 29408 net.cpp:157] Top shape: 8 256 1 4 (8192)
I0120 12:24:22.830071 29408 net.cpp:157] Top shape: 8 256 1 4 (8192)
I0120 12:24:22.830072 29408 net.cpp:157] Top shape: 8 256 1 4 (8192)
I0120 12:24:22.830075 29408 net.cpp:165] Memory required for data: 1088862880
I0120 12:24:22.830076 29408 layer_factory.hpp:77] Creating layer pool6
I0120 12:24:22.830080 29408 net.cpp:100] Creating Layer pool6
I0120 12:24:22.830082 29408 net.cpp:434] pool6 <- conv8_2_conv8_2_relu_0_split_0
I0120 12:24:22.830086 29408 net.cpp:408] pool6 -> pool6
I0120 12:24:22.830210 29408 net.cpp:150] Setting up pool6
I0120 12:24:22.830216 29408 net.cpp:157] Top shape: 8 256 1 1 (2048)
I0120 12:24:22.830217 29408 net.cpp:165] Memory required for data: 1088871072
I0120 12:24:22.830219 29408 layer_factory.hpp:77] Creating layer pool6_pool6_0_split
I0120 12:24:22.830224 29408 net.cpp:100] Creating Layer pool6_pool6_0_split
I0120 12:24:22.830227 29408 net.cpp:434] pool6_pool6_0_split <- pool6
I0120 12:24:22.830229 29408 net.cpp:408] pool6_pool6_0_split -> pool6_pool6_0_split_0
I0120 12:24:22.830234 29408 net.cpp:408] pool6_pool6_0_split -> pool6_pool6_0_split_1
I0120 12:24:22.830236 29408 net.cpp:408] pool6_pool6_0_split -> pool6_pool6_0_split_2
I0120 12:24:22.830274 29408 net.cpp:150] Setting up pool6_pool6_0_split
I0120 12:24:22.830277 29408 net.cpp:157] Top shape: 8 256 1 1 (2048)
I0120 12:24:22.830279 29408 net.cpp:157] Top shape: 8 256 1 1 (2048)
I0120 12:24:22.830281 29408 net.cpp:157] Top shape: 8 256 1 1 (2048)
I0120 12:24:22.830283 29408 net.cpp:165] Memory required for data: 1088895648
I0120 12:24:22.830284 29408 layer_factory.hpp:77] Creating layer conv4_3_norm
I0120 12:24:22.830289 29408 net.cpp:100] Creating Layer conv4_3_norm
I0120 12:24:22.830291 29408 net.cpp:434] conv4_3_norm <- conv4_3_relu4_3_0_split_1
I0120 12:24:22.830294 29408 net.cpp:408] conv4_3_norm -> conv4_3_norm
I0120 12:24:22.830410 29408 net.cpp:150] Setting up conv4_3_norm
I0120 12:24:22.830415 29408 net.cpp:157] Top shape: 8 512 16 52 (3407872)
I0120 12:24:22.830416 29408 net.cpp:165] Memory required for data: 1102527136
I0120 12:24:22.830420 29408 layer_factory.hpp:77] Creating layer conv4_3_norm_conv4_3_norm_0_split
I0120 12:24:22.830422 29408 net.cpp:100] Creating Layer conv4_3_norm_conv4_3_norm_0_split
I0120 12:24:22.830423 29408 net.cpp:434] conv4_3_norm_conv4_3_norm_0_split <- conv4_3_norm
I0120 12:24:22.830426 29408 net.cpp:408] conv4_3_norm_conv4_3_norm_0_split -> conv4_3_norm_conv4_3_norm_0_split_0
I0120 12:24:22.830430 29408 net.cpp:408] conv4_3_norm_conv4_3_norm_0_split -> conv4_3_norm_conv4_3_norm_0_split_1
I0120 12:24:22.830435 29408 net.cpp:408] conv4_3_norm_conv4_3_norm_0_split -> conv4_3_norm_conv4_3_norm_0_split_2
I0120 12:24:22.830468 29408 net.cpp:150] Setting up conv4_3_norm_conv4_3_norm_0_split
I0120 12:24:22.830471 29408 net.cpp:157] Top shape: 8 512 16 52 (3407872)
I0120 12:24:22.830474 29408 net.cpp:157] Top shape: 8 512 16 52 (3407872)
I0120 12:24:22.830476 29408 net.cpp:157] Top shape: 8 512 16 52 (3407872)
I0120 12:24:22.830477 29408 net.cpp:165] Memory required for data: 1143421600
I0120 12:24:22.830478 29408 layer_factory.hpp:77] Creating layer conv4_3_norm_mbox_loc
I0120 12:24:22.830484 29408 net.cpp:100] Creating Layer conv4_3_norm_mbox_loc
I0120 12:24:22.830487 29408 net.cpp:434] conv4_3_norm_mbox_loc <- conv4_3_norm_conv4_3_norm_0_split_0
I0120 12:24:22.830490 29408 net.cpp:408] conv4_3_norm_mbox_loc -> conv4_3_norm_mbox_loc
I0120 12:24:22.831760 29408 net.cpp:150] Setting up conv4_3_norm_mbox_loc
I0120 12:24:22.831769 29408 net.cpp:157] Top shape: 8 16 16 52 (106496)
I0120 12:24:22.831771 29408 net.cpp:165] Memory required for data: 1143847584
I0120 12:24:22.831774 29408 layer_factory.hpp:77] Creating layer conv4_3_norm_mbox_loc_perm
I0120 12:24:22.831779 29408 net.cpp:100] Creating Layer conv4_3_norm_mbox_loc_perm
I0120 12:24:22.831781 29408 net.cpp:434] conv4_3_norm_mbox_loc_perm <- conv4_3_norm_mbox_loc
I0120 12:24:22.831791 29408 net.cpp:408] conv4_3_norm_mbox_loc_perm -> conv4_3_norm_mbox_loc_perm
I0120 12:24:22.831872 29408 net.cpp:150] Setting up conv4_3_norm_mbox_loc_perm
I0120 12:24:22.831876 29408 net.cpp:157] Top shape: 8 16 52 16 (106496)
I0120 12:24:22.831878 29408 net.cpp:165] Memory required for data: 1144273568
I0120 12:24:22.831881 29408 layer_factory.hpp:77] Creating layer conv4_3_norm_mbox_loc_flat
I0120 12:24:22.831883 29408 net.cpp:100] Creating Layer conv4_3_norm_mbox_loc_flat
I0120 12:24:22.831885 29408 net.cpp:434] conv4_3_norm_mbox_loc_flat <- conv4_3_norm_mbox_loc_perm
I0120 12:24:22.831889 29408 net.cpp:408] conv4_3_norm_mbox_loc_flat -> conv4_3_norm_mbox_loc_flat
I0120 12:24:22.831907 29408 net.cpp:150] Setting up conv4_3_norm_mbox_loc_flat
I0120 12:24:22.831909 29408 net.cpp:157] Top shape: 8 13312 (106496)
I0120 12:24:22.831912 29408 net.cpp:165] Memory required for data: 1144699552
I0120 12:24:22.831913 29408 layer_factory.hpp:77] Creating layer conv4_3_norm_mbox_conf
I0120 12:24:22.831918 29408 net.cpp:100] Creating Layer conv4_3_norm_mbox_conf
I0120 12:24:22.831920 29408 net.cpp:434] conv4_3_norm_mbox_conf <- conv4_3_norm_conv4_3_norm_0_split_1
I0120 12:24:22.831925 29408 net.cpp:408] conv4_3_norm_mbox_conf -> conv4_3_norm_mbox_conf
I0120 12:24:22.833613 29408 net.cpp:150] Setting up conv4_3_norm_mbox_conf
I0120 12:24:22.833621 29408 net.cpp:157] Top shape: 8 40 16 52 (266240)
I0120 12:24:22.833622 29408 net.cpp:165] Memory required for data: 1145764512
I0120 12:24:22.833626 29408 layer_factory.hpp:77] Creating layer conv4_3_norm_mbox_conf_perm
I0120 12:24:22.833631 29408 net.cpp:100] Creating Layer conv4_3_norm_mbox_conf_perm
I0120 12:24:22.833633 29408 net.cpp:434] conv4_3_norm_mbox_conf_perm <- conv4_3_norm_mbox_conf
I0120 12:24:22.833638 29408 net.cpp:408] conv4_3_norm_mbox_conf_perm -> conv4_3_norm_mbox_conf_perm
I0120 12:24:22.833717 29408 net.cpp:150] Setting up conv4_3_norm_mbox_conf_perm
I0120 12:24:22.833722 29408 net.cpp:157] Top shape: 8 16 52 40 (266240)
I0120 12:24:22.833724 29408 net.cpp:165] Memory required for data: 1146829472
I0120 12:24:22.833725 29408 layer_factory.hpp:77] Creating layer conv4_3_norm_mbox_conf_flat
I0120 12:24:22.833729 29408 net.cpp:100] Creating Layer conv4_3_norm_mbox_conf_flat
I0120 12:24:22.833730 29408 net.cpp:434] conv4_3_norm_mbox_conf_flat <- conv4_3_norm_mbox_conf_perm
I0120 12:24:22.833734 29408 net.cpp:408] conv4_3_norm_mbox_conf_flat -> conv4_3_norm_mbox_conf_flat
I0120 12:24:22.833751 29408 net.cpp:150] Setting up conv4_3_norm_mbox_conf_flat
I0120 12:24:22.833755 29408 net.cpp:157] Top shape: 8 33280 (266240)
I0120 12:24:22.833756 29408 net.cpp:165] Memory required for data: 1147894432
I0120 12:24:22.833757 29408 layer_factory.hpp:77] Creating layer conv4_3_norm_mbox_priorbox
I0120 12:24:22.833768 29408 net.cpp:100] Creating Layer conv4_3_norm_mbox_priorbox
I0120 12:24:22.833771 29408 net.cpp:434] conv4_3_norm_mbox_priorbox <- conv4_3_norm_conv4_3_norm_0_split_2
I0120 12:24:22.833775 29408 net.cpp:434] conv4_3_norm_mbox_priorbox <- data_data_0_split_1
I0120 12:24:22.833777 29408 net.cpp:408] conv4_3_norm_mbox_priorbox -> conv4_3_norm_mbox_priorbox
I0120 12:24:22.833796 29408 net.cpp:150] Setting up conv4_3_norm_mbox_priorbox
I0120 12:24:22.833799 29408 net.cpp:157] Top shape: 1 2 13312 (26624)
I0120 12:24:22.833801 29408 net.cpp:165] Memory required for data: 1148000928
I0120 12:24:22.833802 29408 layer_factory.hpp:77] Creating layer fc7_conv_mbox_loc
I0120 12:24:22.833807 29408 net.cpp:100] Creating Layer fc7_conv_mbox_loc
I0120 12:24:22.833809 29408 net.cpp:434] fc7_conv_mbox_loc <- fc7_conv_relu7_0_split_1
I0120 12:24:22.833814 29408 net.cpp:408] fc7_conv_mbox_loc -> fc7_conv_mbox_loc
I0120 12:24:22.835634 29408 net.cpp:150] Setting up fc7_conv_mbox_loc
I0120 12:24:22.835642 29408 net.cpp:157] Top shape: 8 24 8 26 (39936)
I0120 12:24:22.835644 29408 net.cpp:165] Memory required for data: 1148160672
I0120 12:24:22.835649 29408 layer_factory.hpp:77] Creating layer fc7_conv_mbox_loc_perm
I0120 12:24:22.835654 29408 net.cpp:100] Creating Layer fc7_conv_mbox_loc_perm
I0120 12:24:22.835664 29408 net.cpp:434] fc7_conv_mbox_loc_perm <- fc7_conv_mbox_loc
I0120 12:24:22.835666 29408 net.cpp:408] fc7_conv_mbox_loc_perm -> fc7_conv_mbox_loc_perm
I0120 12:24:22.835750 29408 net.cpp:150] Setting up fc7_conv_mbox_loc_perm
I0120 12:24:22.835754 29408 net.cpp:157] Top shape: 8 8 26 24 (39936)
I0120 12:24:22.835757 29408 net.cpp:165] Memory required for data: 1148320416
I0120 12:24:22.835757 29408 layer_factory.hpp:77] Creating layer fc7_conv_mbox_loc_flat
I0120 12:24:22.835762 29408 net.cpp:100] Creating Layer fc7_conv_mbox_loc_flat
I0120 12:24:22.835763 29408 net.cpp:434] fc7_conv_mbox_loc_flat <- fc7_conv_mbox_loc_perm
I0120 12:24:22.835767 29408 net.cpp:408] fc7_conv_mbox_loc_flat -> fc7_conv_mbox_loc_flat
I0120 12:24:22.835783 29408 net.cpp:150] Setting up fc7_conv_mbox_loc_flat
I0120 12:24:22.835786 29408 net.cpp:157] Top shape: 8 4992 (39936)
I0120 12:24:22.835788 29408 net.cpp:165] Memory required for data: 1148480160
I0120 12:24:22.835789 29408 layer_factory.hpp:77] Creating layer fc7_conv_mbox_conf
I0120 12:24:22.835794 29408 net.cpp:100] Creating Layer fc7_conv_mbox_conf
I0120 12:24:22.835798 29408 net.cpp:434] fc7_conv_mbox_conf <- fc7_conv_relu7_0_split_2
I0120 12:24:22.835801 29408 net.cpp:408] fc7_conv_mbox_conf -> fc7_conv_mbox_conf
I0120 12:24:22.839412 29408 net.cpp:150] Setting up fc7_conv_mbox_conf
I0120 12:24:22.839424 29408 net.cpp:157] Top shape: 8 60 8 26 (99840)
I0120 12:24:22.839426 29408 net.cpp:165] Memory required for data: 1148879520
I0120 12:24:22.839431 29408 layer_factory.hpp:77] Creating layer fc7_conv_mbox_conf_perm
I0120 12:24:22.839435 29408 net.cpp:100] Creating Layer fc7_conv_mbox_conf_perm
I0120 12:24:22.839437 29408 net.cpp:434] fc7_conv_mbox_conf_perm <- fc7_conv_mbox_conf
I0120 12:24:22.839442 29408 net.cpp:408] fc7_conv_mbox_conf_perm -> fc7_conv_mbox_conf_perm
I0120 12:24:22.839531 29408 net.cpp:150] Setting up fc7_conv_mbox_conf_perm
I0120 12:24:22.839535 29408 net.cpp:157] Top shape: 8 8 26 60 (99840)
I0120 12:24:22.839537 29408 net.cpp:165] Memory required for data: 1149278880
I0120 12:24:22.839540 29408 layer_factory.hpp:77] Creating layer fc7_conv_mbox_conf_flat
I0120 12:24:22.839543 29408 net.cpp:100] Creating Layer fc7_conv_mbox_conf_flat
I0120 12:24:22.839545 29408 net.cpp:434] fc7_conv_mbox_conf_flat <- fc7_conv_mbox_conf_perm
I0120 12:24:22.839547 29408 net.cpp:408] fc7_conv_mbox_conf_flat -> fc7_conv_mbox_conf_flat
I0120 12:24:22.839565 29408 net.cpp:150] Setting up fc7_conv_mbox_conf_flat
I0120 12:24:22.839568 29408 net.cpp:157] Top shape: 8 12480 (99840)
I0120 12:24:22.839570 29408 net.cpp:165] Memory required for data: 1149678240
I0120 12:24:22.839571 29408 layer_factory.hpp:77] Creating layer fc7_conv_mbox_priorbox
I0120 12:24:22.839577 29408 net.cpp:100] Creating Layer fc7_conv_mbox_priorbox
I0120 12:24:22.839581 29408 net.cpp:434] fc7_conv_mbox_priorbox <- fc7_conv_relu7_0_split_3
I0120 12:24:22.839583 29408 net.cpp:434] fc7_conv_mbox_priorbox <- data_data_0_split_2
I0120 12:24:22.839586 29408 net.cpp:408] fc7_conv_mbox_priorbox -> fc7_conv_mbox_priorbox
I0120 12:24:22.839608 29408 net.cpp:150] Setting up fc7_conv_mbox_priorbox
I0120 12:24:22.839612 29408 net.cpp:157] Top shape: 1 2 4992 (9984)
I0120 12:24:22.839613 29408 net.cpp:165] Memory required for data: 1149718176
I0120 12:24:22.839614 29408 layer_factory.hpp:77] Creating layer conv6_2_mbox_loc
I0120 12:24:22.839622 29408 net.cpp:100] Creating Layer conv6_2_mbox_loc
I0120 12:24:22.839624 29408 net.cpp:434] conv6_2_mbox_loc <- conv6_2_conv6_2_relu_0_split_1
I0120 12:24:22.839628 29408 net.cpp:408] conv6_2_mbox_loc -> conv6_2_mbox_loc
I0120 12:24:22.841171 29408 net.cpp:150] Setting up conv6_2_mbox_loc
I0120 12:24:22.841181 29408 net.cpp:157] Top shape: 8 24 4 13 (9984)
I0120 12:24:22.841182 29408 net.cpp:165] Memory required for data: 1149758112
I0120 12:24:22.841187 29408 layer_factory.hpp:77] Creating layer conv6_2_mbox_loc_perm
I0120 12:24:22.841192 29408 net.cpp:100] Creating Layer conv6_2_mbox_loc_perm
I0120 12:24:22.841195 29408 net.cpp:434] conv6_2_mbox_loc_perm <- conv6_2_mbox_loc
I0120 12:24:22.841210 29408 net.cpp:408] conv6_2_mbox_loc_perm -> conv6_2_mbox_loc_perm
I0120 12:24:22.841301 29408 net.cpp:150] Setting up conv6_2_mbox_loc_perm
I0120 12:24:22.841305 29408 net.cpp:157] Top shape: 8 4 13 24 (9984)
I0120 12:24:22.841307 29408 net.cpp:165] Memory required for data: 1149798048
I0120 12:24:22.841308 29408 layer_factory.hpp:77] Creating layer conv6_2_mbox_loc_flat
I0120 12:24:22.841312 29408 net.cpp:100] Creating Layer conv6_2_mbox_loc_flat
I0120 12:24:22.841315 29408 net.cpp:434] conv6_2_mbox_loc_flat <- conv6_2_mbox_loc_perm
I0120 12:24:22.841317 29408 net.cpp:408] conv6_2_mbox_loc_flat -> conv6_2_mbox_loc_flat
I0120 12:24:22.841336 29408 net.cpp:150] Setting up conv6_2_mbox_loc_flat
I0120 12:24:22.841338 29408 net.cpp:157] Top shape: 8 1248 (9984)
I0120 12:24:22.841341 29408 net.cpp:165] Memory required for data: 1149837984
I0120 12:24:22.841341 29408 layer_factory.hpp:77] Creating layer conv6_2_mbox_conf
I0120 12:24:22.841347 29408 net.cpp:100] Creating Layer conv6_2_mbox_conf
I0120 12:24:22.841351 29408 net.cpp:434] conv6_2_mbox_conf <- conv6_2_conv6_2_relu_0_split_2
I0120 12:24:22.841354 29408 net.cpp:408] conv6_2_mbox_conf -> conv6_2_mbox_conf
I0120 12:24:22.843787 29408 net.cpp:150] Setting up conv6_2_mbox_conf
I0120 12:24:22.843802 29408 net.cpp:157] Top shape: 8 60 4 13 (24960)
I0120 12:24:22.843804 29408 net.cpp:165] Memory required for data: 1149937824
I0120 12:24:22.843811 29408 layer_factory.hpp:77] Creating layer conv6_2_mbox_conf_perm
I0120 12:24:22.843817 29408 net.cpp:100] Creating Layer conv6_2_mbox_conf_perm
I0120 12:24:22.843821 29408 net.cpp:434] conv6_2_mbox_conf_perm <- conv6_2_mbox_conf
I0120 12:24:22.843825 29408 net.cpp:408] conv6_2_mbox_conf_perm -> conv6_2_mbox_conf_perm
I0120 12:24:22.843919 29408 net.cpp:150] Setting up conv6_2_mbox_conf_perm
I0120 12:24:22.843924 29408 net.cpp:157] Top shape: 8 4 13 60 (24960)
I0120 12:24:22.843924 29408 net.cpp:165] Memory required for data: 1150037664
I0120 12:24:22.843926 29408 layer_factory.hpp:77] Creating layer conv6_2_mbox_conf_flat
I0120 12:24:22.843930 29408 net.cpp:100] Creating Layer conv6_2_mbox_conf_flat
I0120 12:24:22.843932 29408 net.cpp:434] conv6_2_mbox_conf_flat <- conv6_2_mbox_conf_perm
I0120 12:24:22.843936 29408 net.cpp:408] conv6_2_mbox_conf_flat -> conv6_2_mbox_conf_flat
I0120 12:24:22.843955 29408 net.cpp:150] Setting up conv6_2_mbox_conf_flat
I0120 12:24:22.843957 29408 net.cpp:157] Top shape: 8 3120 (24960)
I0120 12:24:22.843960 29408 net.cpp:165] Memory required for data: 1150137504
I0120 12:24:22.843961 29408 layer_factory.hpp:77] Creating layer conv6_2_mbox_priorbox
I0120 12:24:22.843966 29408 net.cpp:100] Creating Layer conv6_2_mbox_priorbox
I0120 12:24:22.843968 29408 net.cpp:434] conv6_2_mbox_priorbox <- conv6_2_conv6_2_relu_0_split_3
I0120 12:24:22.843972 29408 net.cpp:434] conv6_2_mbox_priorbox <- data_data_0_split_3
I0120 12:24:22.843976 29408 net.cpp:408] conv6_2_mbox_priorbox -> conv6_2_mbox_priorbox
I0120 12:24:22.843998 29408 net.cpp:150] Setting up conv6_2_mbox_priorbox
I0120 12:24:22.844002 29408 net.cpp:157] Top shape: 1 2 1248 (2496)
I0120 12:24:22.844003 29408 net.cpp:165] Memory required for data: 1150147488
I0120 12:24:22.844005 29408 layer_factory.hpp:77] Creating layer conv7_2_mbox_loc
I0120 12:24:22.844012 29408 net.cpp:100] Creating Layer conv7_2_mbox_loc
I0120 12:24:22.844014 29408 net.cpp:434] conv7_2_mbox_loc <- conv7_2_conv7_2_relu_0_split_1
I0120 12:24:22.844018 29408 net.cpp:408] conv7_2_mbox_loc -> conv7_2_mbox_loc
I0120 12:24:22.845301 29408 net.cpp:150] Setting up conv7_2_mbox_loc
I0120 12:24:22.845310 29408 net.cpp:157] Top shape: 8 24 2 7 (2688)
I0120 12:24:22.845311 29408 net.cpp:165] Memory required for data: 1150158240
I0120 12:24:22.845316 29408 layer_factory.hpp:77] Creating layer conv7_2_mbox_loc_perm
I0120 12:24:22.845320 29408 net.cpp:100] Creating Layer conv7_2_mbox_loc_perm
I0120 12:24:22.845324 29408 net.cpp:434] conv7_2_mbox_loc_perm <- conv7_2_mbox_loc
I0120 12:24:22.845327 29408 net.cpp:408] conv7_2_mbox_loc_perm -> conv7_2_mbox_loc_perm
I0120 12:24:22.845427 29408 net.cpp:150] Setting up conv7_2_mbox_loc_perm
I0120 12:24:22.845432 29408 net.cpp:157] Top shape: 8 2 7 24 (2688)
I0120 12:24:22.845433 29408 net.cpp:165] Memory required for data: 1150168992
I0120 12:24:22.845434 29408 layer_factory.hpp:77] Creating layer conv7_2_mbox_loc_flat
I0120 12:24:22.845438 29408 net.cpp:100] Creating Layer conv7_2_mbox_loc_flat
I0120 12:24:22.845440 29408 net.cpp:434] conv7_2_mbox_loc_flat <- conv7_2_mbox_loc_perm
I0120 12:24:22.845444 29408 net.cpp:408] conv7_2_mbox_loc_flat -> conv7_2_mbox_loc_flat
I0120 12:24:22.845461 29408 net.cpp:150] Setting up conv7_2_mbox_loc_flat
I0120 12:24:22.845465 29408 net.cpp:157] Top shape: 8 336 (2688)
I0120 12:24:22.845468 29408 net.cpp:165] Memory required for data: 1150179744
I0120 12:24:22.845468 29408 layer_factory.hpp:77] Creating layer conv7_2_mbox_conf
I0120 12:24:22.845474 29408 net.cpp:100] Creating Layer conv7_2_mbox_conf
I0120 12:24:22.845477 29408 net.cpp:434] conv7_2_mbox_conf <- conv7_2_conv7_2_relu_0_split_2
I0120 12:24:22.845481 29408 net.cpp:408] conv7_2_mbox_conf -> conv7_2_mbox_conf
I0120 12:24:22.847021 29408 net.cpp:150] Setting up conv7_2_mbox_conf
I0120 12:24:22.847029 29408 net.cpp:157] Top shape: 8 60 2 7 (6720)
I0120 12:24:22.847031 29408 net.cpp:165] Memory required for data: 1150206624
I0120 12:24:22.847035 29408 layer_factory.hpp:77] Creating layer conv7_2_mbox_conf_perm
I0120 12:24:22.847043 29408 net.cpp:100] Creating Layer conv7_2_mbox_conf_perm
I0120 12:24:22.847045 29408 net.cpp:434] conv7_2_mbox_conf_perm <- conv7_2_mbox_conf
I0120 12:24:22.847049 29408 net.cpp:408] conv7_2_mbox_conf_perm -> conv7_2_mbox_conf_perm
I0120 12:24:22.847136 29408 net.cpp:150] Setting up conv7_2_mbox_conf_perm
I0120 12:24:22.847139 29408 net.cpp:157] Top shape: 8 2 7 60 (6720)
I0120 12:24:22.847141 29408 net.cpp:165] Memory required for data: 1150233504
I0120 12:24:22.847142 29408 layer_factory.hpp:77] Creating layer conv7_2_mbox_conf_flat
I0120 12:24:22.847146 29408 net.cpp:100] Creating Layer conv7_2_mbox_conf_flat
I0120 12:24:22.847148 29408 net.cpp:434] conv7_2_mbox_conf_flat <- conv7_2_mbox_conf_perm
I0120 12:24:22.847151 29408 net.cpp:408] conv7_2_mbox_conf_flat -> conv7_2_mbox_conf_flat
I0120 12:24:22.847170 29408 net.cpp:150] Setting up conv7_2_mbox_conf_flat
I0120 12:24:22.847173 29408 net.cpp:157] Top shape: 8 840 (6720)
I0120 12:24:22.847175 29408 net.cpp:165] Memory required for data: 1150260384
I0120 12:24:22.847177 29408 layer_factory.hpp:77] Creating layer conv7_2_mbox_priorbox
I0120 12:24:22.847180 29408 net.cpp:100] Creating Layer conv7_2_mbox_priorbox
I0120 12:24:22.847182 29408 net.cpp:434] conv7_2_mbox_priorbox <- conv7_2_conv7_2_relu_0_split_3
I0120 12:24:22.847185 29408 net.cpp:434] conv7_2_mbox_priorbox <- data_data_0_split_4
I0120 12:24:22.847190 29408 net.cpp:408] conv7_2_mbox_priorbox -> conv7_2_mbox_priorbox
I0120 12:24:22.847211 29408 net.cpp:150] Setting up conv7_2_mbox_priorbox
I0120 12:24:22.847214 29408 net.cpp:157] Top shape: 1 2 336 (672)
I0120 12:24:22.847215 29408 net.cpp:165] Memory required for data: 1150263072
I0120 12:24:22.847218 29408 layer_factory.hpp:77] Creating layer conv8_2_mbox_loc
I0120 12:24:22.847223 29408 net.cpp:100] Creating Layer conv8_2_mbox_loc
I0120 12:24:22.847225 29408 net.cpp:434] conv8_2_mbox_loc <- conv8_2_conv8_2_relu_0_split_1
I0120 12:24:22.847229 29408 net.cpp:408] conv8_2_mbox_loc -> conv8_2_mbox_loc
I0120 12:24:22.848435 29408 net.cpp:150] Setting up conv8_2_mbox_loc
I0120 12:24:22.848443 29408 net.cpp:157] Top shape: 8 16 1 4 (512)
I0120 12:24:22.848445 29408 net.cpp:165] Memory required for data: 1150265120
I0120 12:24:22.848449 29408 layer_factory.hpp:77] Creating layer conv8_2_mbox_loc_perm
I0120 12:24:22.848454 29408 net.cpp:100] Creating Layer conv8_2_mbox_loc_perm
I0120 12:24:22.848458 29408 net.cpp:434] conv8_2_mbox_loc_perm <- conv8_2_mbox_loc
I0120 12:24:22.848461 29408 net.cpp:408] conv8_2_mbox_loc_perm -> conv8_2_mbox_loc_perm
I0120 12:24:22.848546 29408 net.cpp:150] Setting up conv8_2_mbox_loc_perm
I0120 12:24:22.848551 29408 net.cpp:157] Top shape: 8 1 4 16 (512)
I0120 12:24:22.848561 29408 net.cpp:165] Memory required for data: 1150267168
I0120 12:24:22.848562 29408 layer_factory.hpp:77] Creating layer conv8_2_mbox_loc_flat
I0120 12:24:22.848567 29408 net.cpp:100] Creating Layer conv8_2_mbox_loc_flat
I0120 12:24:22.848568 29408 net.cpp:434] conv8_2_mbox_loc_flat <- conv8_2_mbox_loc_perm
I0120 12:24:22.848572 29408 net.cpp:408] conv8_2_mbox_loc_flat -> conv8_2_mbox_loc_flat
I0120 12:24:22.848592 29408 net.cpp:150] Setting up conv8_2_mbox_loc_flat
I0120 12:24:22.848595 29408 net.cpp:157] Top shape: 8 64 (512)
I0120 12:24:22.848597 29408 net.cpp:165] Memory required for data: 1150269216
I0120 12:24:22.848598 29408 layer_factory.hpp:77] Creating layer conv8_2_mbox_conf
I0120 12:24:22.848603 29408 net.cpp:100] Creating Layer conv8_2_mbox_conf
I0120 12:24:22.848606 29408 net.cpp:434] conv8_2_mbox_conf <- conv8_2_conv8_2_relu_0_split_2
I0120 12:24:22.848610 29408 net.cpp:408] conv8_2_mbox_conf -> conv8_2_mbox_conf
I0120 12:24:22.850011 29408 net.cpp:150] Setting up conv8_2_mbox_conf
I0120 12:24:22.850019 29408 net.cpp:157] Top shape: 8 40 1 4 (1280)
I0120 12:24:22.850021 29408 net.cpp:165] Memory required for data: 1150274336
I0120 12:24:22.850024 29408 layer_factory.hpp:77] Creating layer conv8_2_mbox_conf_perm
I0120 12:24:22.850030 29408 net.cpp:100] Creating Layer conv8_2_mbox_conf_perm
I0120 12:24:22.850033 29408 net.cpp:434] conv8_2_mbox_conf_perm <- conv8_2_mbox_conf
I0120 12:24:22.850038 29408 net.cpp:408] conv8_2_mbox_conf_perm -> conv8_2_mbox_conf_perm
I0120 12:24:22.850122 29408 net.cpp:150] Setting up conv8_2_mbox_conf_perm
I0120 12:24:22.850126 29408 net.cpp:157] Top shape: 8 1 4 40 (1280)
I0120 12:24:22.850128 29408 net.cpp:165] Memory required for data: 1150279456
I0120 12:24:22.850131 29408 layer_factory.hpp:77] Creating layer conv8_2_mbox_conf_flat
I0120 12:24:22.850133 29408 net.cpp:100] Creating Layer conv8_2_mbox_conf_flat
I0120 12:24:22.850136 29408 net.cpp:434] conv8_2_mbox_conf_flat <- conv8_2_mbox_conf_perm
I0120 12:24:22.850138 29408 net.cpp:408] conv8_2_mbox_conf_flat -> conv8_2_mbox_conf_flat
I0120 12:24:22.850159 29408 net.cpp:150] Setting up conv8_2_mbox_conf_flat
I0120 12:24:22.850162 29408 net.cpp:157] Top shape: 8 160 (1280)
I0120 12:24:22.850164 29408 net.cpp:165] Memory required for data: 1150284576
I0120 12:24:22.850167 29408 layer_factory.hpp:77] Creating layer conv8_2_mbox_priorbox
I0120 12:24:22.850170 29408 net.cpp:100] Creating Layer conv8_2_mbox_priorbox
I0120 12:24:22.850172 29408 net.cpp:434] conv8_2_mbox_priorbox <- conv8_2_conv8_2_relu_0_split_3
I0120 12:24:22.850175 29408 net.cpp:434] conv8_2_mbox_priorbox <- data_data_0_split_5
I0120 12:24:22.850180 29408 net.cpp:408] conv8_2_mbox_priorbox -> conv8_2_mbox_priorbox
I0120 12:24:22.850199 29408 net.cpp:150] Setting up conv8_2_mbox_priorbox
I0120 12:24:22.850203 29408 net.cpp:157] Top shape: 1 2 64 (128)
I0120 12:24:22.850205 29408 net.cpp:165] Memory required for data: 1150285088
I0120 12:24:22.850206 29408 layer_factory.hpp:77] Creating layer pool6_mbox_loc
I0120 12:24:22.850211 29408 net.cpp:100] Creating Layer pool6_mbox_loc
I0120 12:24:22.850214 29408 net.cpp:434] pool6_mbox_loc <- pool6_pool6_0_split_0
I0120 12:24:22.850219 29408 net.cpp:408] pool6_mbox_loc -> pool6_mbox_loc
I0120 12:24:22.851459 29408 net.cpp:150] Setting up pool6_mbox_loc
I0120 12:24:22.851466 29408 net.cpp:157] Top shape: 8 16 1 1 (128)
I0120 12:24:22.851469 29408 net.cpp:165] Memory required for data: 1150285600
I0120 12:24:22.851480 29408 layer_factory.hpp:77] Creating layer pool6_mbox_loc_perm
I0120 12:24:22.851483 29408 net.cpp:100] Creating Layer pool6_mbox_loc_perm
I0120 12:24:22.851486 29408 net.cpp:434] pool6_mbox_loc_perm <- pool6_mbox_loc
I0120 12:24:22.851490 29408 net.cpp:408] pool6_mbox_loc_perm -> pool6_mbox_loc_perm
I0120 12:24:22.851579 29408 net.cpp:150] Setting up pool6_mbox_loc_perm
I0120 12:24:22.851583 29408 net.cpp:157] Top shape: 8 1 1 16 (128)
I0120 12:24:22.851584 29408 net.cpp:165] Memory required for data: 1150286112
I0120 12:24:22.851586 29408 layer_factory.hpp:77] Creating layer pool6_mbox_loc_flat
I0120 12:24:22.851598 29408 net.cpp:100] Creating Layer pool6_mbox_loc_flat
I0120 12:24:22.851600 29408 net.cpp:434] pool6_mbox_loc_flat <- pool6_mbox_loc_perm
I0120 12:24:22.851606 29408 net.cpp:408] pool6_mbox_loc_flat -> pool6_mbox_loc_flat
I0120 12:24:22.851626 29408 net.cpp:150] Setting up pool6_mbox_loc_flat
I0120 12:24:22.851630 29408 net.cpp:157] Top shape: 8 16 (128)
I0120 12:24:22.851631 29408 net.cpp:165] Memory required for data: 1150286624
I0120 12:24:22.851634 29408 layer_factory.hpp:77] Creating layer pool6_mbox_conf
I0120 12:24:22.851639 29408 net.cpp:100] Creating Layer pool6_mbox_conf
I0120 12:24:22.851641 29408 net.cpp:434] pool6_mbox_conf <- pool6_pool6_0_split_1
I0120 12:24:22.851644 29408 net.cpp:408] pool6_mbox_conf -> pool6_mbox_conf
I0120 12:24:22.853055 29408 net.cpp:150] Setting up pool6_mbox_conf
I0120 12:24:22.853061 29408 net.cpp:157] Top shape: 8 40 1 1 (320)
I0120 12:24:22.853065 29408 net.cpp:165] Memory required for data: 1150287904
I0120 12:24:22.853068 29408 layer_factory.hpp:77] Creating layer pool6_mbox_conf_perm
I0120 12:24:22.853073 29408 net.cpp:100] Creating Layer pool6_mbox_conf_perm
I0120 12:24:22.853076 29408 net.cpp:434] pool6_mbox_conf_perm <- pool6_mbox_conf
I0120 12:24:22.853080 29408 net.cpp:408] pool6_mbox_conf_perm -> pool6_mbox_conf_perm
I0120 12:24:22.853169 29408 net.cpp:150] Setting up pool6_mbox_conf_perm
I0120 12:24:22.853173 29408 net.cpp:157] Top shape: 8 1 1 40 (320)
I0120 12:24:22.853174 29408 net.cpp:165] Memory required for data: 1150289184
I0120 12:24:22.853176 29408 layer_factory.hpp:77] Creating layer pool6_mbox_conf_flat
I0120 12:24:22.853181 29408 net.cpp:100] Creating Layer pool6_mbox_conf_flat
I0120 12:24:22.853184 29408 net.cpp:434] pool6_mbox_conf_flat <- pool6_mbox_conf_perm
I0120 12:24:22.853188 29408 net.cpp:408] pool6_mbox_conf_flat -> pool6_mbox_conf_flat
I0120 12:24:22.853206 29408 net.cpp:150] Setting up pool6_mbox_conf_flat
I0120 12:24:22.853210 29408 net.cpp:157] Top shape: 8 40 (320)
I0120 12:24:22.853211 29408 net.cpp:165] Memory required for data: 1150290464
I0120 12:24:22.853214 29408 layer_factory.hpp:77] Creating layer pool6_mbox_priorbox
I0120 12:24:22.853217 29408 net.cpp:100] Creating Layer pool6_mbox_priorbox
I0120 12:24:22.853220 29408 net.cpp:434] pool6_mbox_priorbox <- pool6_pool6_0_split_2
I0120 12:24:22.853222 29408 net.cpp:434] pool6_mbox_priorbox <- data_data_0_split_6
I0120 12:24:22.853226 29408 net.cpp:408] pool6_mbox_priorbox -> pool6_mbox_priorbox
I0120 12:24:22.853246 29408 net.cpp:150] Setting up pool6_mbox_priorbox
I0120 12:24:22.853250 29408 net.cpp:157] Top shape: 1 2 16 (32)
I0120 12:24:22.853251 29408 net.cpp:165] Memory required for data: 1150290592
I0120 12:24:22.853252 29408 layer_factory.hpp:77] Creating layer mbox_loc
I0120 12:24:22.853257 29408 net.cpp:100] Creating Layer mbox_loc
I0120 12:24:22.853260 29408 net.cpp:434] mbox_loc <- conv4_3_norm_mbox_loc_flat
I0120 12:24:22.853263 29408 net.cpp:434] mbox_loc <- fc7_conv_mbox_loc_flat
I0120 12:24:22.853266 29408 net.cpp:434] mbox_loc <- conv6_2_mbox_loc_flat
I0120 12:24:22.853271 29408 net.cpp:434] mbox_loc <- conv7_2_mbox_loc_flat
I0120 12:24:22.853272 29408 net.cpp:434] mbox_loc <- conv8_2_mbox_loc_flat
I0120 12:24:22.853274 29408 net.cpp:434] mbox_loc <- pool6_mbox_loc_flat
I0120 12:24:22.853277 29408 net.cpp:408] mbox_loc -> mbox_loc
I0120 12:24:22.853297 29408 net.cpp:150] Setting up mbox_loc
I0120 12:24:22.853302 29408 net.cpp:157] Top shape: 8 19968 (159744)
I0120 12:24:22.853303 29408 net.cpp:165] Memory required for data: 1150929568
I0120 12:24:22.853304 29408 layer_factory.hpp:77] Creating layer mbox_conf
I0120 12:24:22.853307 29408 net.cpp:100] Creating Layer mbox_conf
I0120 12:24:22.853310 29408 net.cpp:434] mbox_conf <- conv4_3_norm_mbox_conf_flat
I0120 12:24:22.853312 29408 net.cpp:434] mbox_conf <- fc7_conv_mbox_conf_flat
I0120 12:24:22.853315 29408 net.cpp:434] mbox_conf <- conv6_2_mbox_conf_flat
I0120 12:24:22.853318 29408 net.cpp:434] mbox_conf <- conv7_2_mbox_conf_flat
I0120 12:24:22.853320 29408 net.cpp:434] mbox_conf <- conv8_2_mbox_conf_flat
I0120 12:24:22.853329 29408 net.cpp:434] mbox_conf <- pool6_mbox_conf_flat
I0120 12:24:22.853334 29408 net.cpp:408] mbox_conf -> mbox_conf
I0120 12:24:22.853353 29408 net.cpp:150] Setting up mbox_conf
I0120 12:24:22.853358 29408 net.cpp:157] Top shape: 8 49920 (399360)
I0120 12:24:22.853358 29408 net.cpp:165] Memory required for data: 1152527008
I0120 12:24:22.853360 29408 layer_factory.hpp:77] Creating layer mbox_priorbox
I0120 12:24:22.853363 29408 net.cpp:100] Creating Layer mbox_priorbox
I0120 12:24:22.853364 29408 net.cpp:434] mbox_priorbox <- conv4_3_norm_mbox_priorbox
I0120 12:24:22.853368 29408 net.cpp:434] mbox_priorbox <- fc7_conv_mbox_priorbox
I0120 12:24:22.853369 29408 net.cpp:434] mbox_priorbox <- conv6_2_mbox_priorbox
I0120 12:24:22.853373 29408 net.cpp:434] mbox_priorbox <- conv7_2_mbox_priorbox
I0120 12:24:22.853374 29408 net.cpp:434] mbox_priorbox <- conv8_2_mbox_priorbox
I0120 12:24:22.853376 29408 net.cpp:434] mbox_priorbox <- pool6_mbox_priorbox
I0120 12:24:22.853379 29408 net.cpp:408] mbox_priorbox -> mbox_priorbox
I0120 12:24:22.853397 29408 net.cpp:150] Setting up mbox_priorbox
I0120 12:24:22.853400 29408 net.cpp:157] Top shape: 1 2 19968 (39936)
I0120 12:24:22.853402 29408 net.cpp:165] Memory required for data: 1152686752
I0120 12:24:22.853404 29408 layer_factory.hpp:77] Creating layer mbox_conf_reshape
I0120 12:24:22.853409 29408 net.cpp:100] Creating Layer mbox_conf_reshape
I0120 12:24:22.853410 29408 net.cpp:434] mbox_conf_reshape <- mbox_conf
I0120 12:24:22.853413 29408 net.cpp:408] mbox_conf_reshape -> mbox_conf_reshape
I0120 12:24:22.853437 29408 net.cpp:150] Setting up mbox_conf_reshape
I0120 12:24:22.853441 29408 net.cpp:157] Top shape: 8 4992 10 (399360)
I0120 12:24:22.853443 29408 net.cpp:165] Memory required for data: 1154284192
I0120 12:24:22.853444 29408 layer_factory.hpp:77] Creating layer mbox_conf_softmax
I0120 12:24:22.853448 29408 net.cpp:100] Creating Layer mbox_conf_softmax
I0120 12:24:22.853451 29408 net.cpp:434] mbox_conf_softmax <- mbox_conf_reshape
I0120 12:24:22.853454 29408 net.cpp:408] mbox_conf_softmax -> mbox_conf_softmax
I0120 12:24:22.853626 29408 net.cpp:150] Setting up mbox_conf_softmax
I0120 12:24:22.853631 29408 net.cpp:157] Top shape: 8 4992 10 (399360)
I0120 12:24:22.853634 29408 net.cpp:165] Memory required for data: 1155881632
I0120 12:24:22.853636 29408 layer_factory.hpp:77] Creating layer mbox_conf_flatten
I0120 12:24:22.853639 29408 net.cpp:100] Creating Layer mbox_conf_flatten
I0120 12:24:22.853641 29408 net.cpp:434] mbox_conf_flatten <- mbox_conf_softmax
I0120 12:24:22.853644 29408 net.cpp:408] mbox_conf_flatten -> mbox_conf_flatten
I0120 12:24:22.853663 29408 net.cpp:150] Setting up mbox_conf_flatten
I0120 12:24:22.853667 29408 net.cpp:157] Top shape: 8 49920 (399360)
I0120 12:24:22.853668 29408 net.cpp:165] Memory required for data: 1157479072
I0120 12:24:22.853670 29408 layer_factory.hpp:77] Creating layer detection_out
I0120 12:24:22.853684 29408 net.cpp:100] Creating Layer detection_out
I0120 12:24:22.853688 29408 net.cpp:434] detection_out <- mbox_loc
I0120 12:24:22.853689 29408 net.cpp:434] detection_out <- mbox_conf_flatten
I0120 12:24:22.853693 29408 net.cpp:434] detection_out <- mbox_priorbox
I0120 12:24:22.853695 29408 net.cpp:408] detection_out -> detection_out
I0120 12:24:22.854210 29408 net.cpp:150] Setting up detection_out
I0120 12:24:22.854218 29408 net.cpp:157] Top shape: 1 1 1 7 (7)
I0120 12:24:22.854219 29408 net.cpp:165] Memory required for data: 1157479100
I0120 12:24:22.854220 29408 layer_factory.hpp:77] Creating layer detection_eval
I0120 12:24:22.854225 29408 net.cpp:100] Creating Layer detection_eval
I0120 12:24:22.854228 29408 net.cpp:434] detection_eval <- detection_out
I0120 12:24:22.854230 29408 net.cpp:434] detection_eval <- label
I0120 12:24:22.854233 29408 net.cpp:408] detection_eval -> detection_eval
I0120 12:24:22.854454 29408 net.cpp:150] Setting up detection_eval
I0120 12:24:22.854459 29408 net.cpp:157] Top shape: 1 1 10 5 (50)
I0120 12:24:22.854461 29408 net.cpp:165] Memory required for data: 1157479300
I0120 12:24:22.854470 29408 net.cpp:228] detection_eval does not need backward computation.
I0120 12:24:22.854471 29408 net.cpp:228] detection_out does not need backward computation.
I0120 12:24:22.854473 29408 net.cpp:228] mbox_conf_flatten does not need backward computation.
I0120 12:24:22.854476 29408 net.cpp:228] mbox_conf_softmax does not need backward computation.
…
